tutorials/mlp.onnx (onnx, 407451 bytes, 4 tensors)

fc1.bias f4 [128]
00000000: 7cb7 ebbc b4b3 233c 1a62 8cbc 623e ff3c
00000010: b750 0b3d b05c 0cbd e084 743b f340 e6bc
00000020: 0806 e43b 1ea8 943c 7043 153c c06c b2bc
00000030: d40c e8bb 807d 473b 1b21 12bd a05d e03a
00000040: 23f4 a2bc d2b0 dd3c c00d bfbc de9a ffbc
00000050: 315f 093d 10dd b9bc 309a 673b 4e75 11bd
00000060: 0da1 033d 73ea eebc 006d e3bc 420e fc3c
00000070: 98ab c03b 0771 03bd 0087 5dbc 00ef e4b9
00000080: 900c 6e3c 329c a73c d44b 303c eca5 b23c
00000090: f43a 5b3c 78f2 c43c 5e52 fdbc 583d e1bc
000000a0: 5a7f c93c 14af 11bd 9eb2 9d3c 0aae 8b3c
000000b0: ba9e c2bc 8a75 e3bc c4cb 153c c8c1 c5bc
000000c0: 4ac7 a53c a08d 553c e8a3 5c3c 54d3 c1bb
000000d0: f08f fb3b d851 bcbc d654 f63c d07e a5bc
000000e0: ae13 2bbc 54d3 9dbb c049 4f3c 4c22 d4bc
000000f0: 4093 e3bc a3c5 033d 2058 da3c a0c2 4c3c
00000100: 76f6 9e3c 455c 8fbc 28d1 513c d272 d73c
00000110: 8420 0cbc 7875 e7bb 189b 50bc 101b 03bd
00000120: 78fc c23c 7d04 0fbd 38b8 8e3c 348a 733c
00000130: 7064 a73c 3e0a 903c 2c20 8bbc ec39 b0bc
00000140: 9573 93bc 63f5 08bd 80d1 e1b9 2e07 903c
00000150: c43f 7c3c 009a 823b 384c af3c bc56 0dbd
00000160: f7f2 88bc e062 d83b 6e98 2ebc 00b3 71b9
00000170: ec71 95bc e689 39bc f50d 95bc f4a6 883c
00000180: 239b 81bc 8436 193c 64e9 05bd a021 dc3a
00000190: a0dd 2f3c be10 80bc 78a7 553c 6c9c c9bc
000001a0: 0e53 b23c fca9 21bc de60 b0bc 0050 ab39
000001b0: 2390 f0bc 5027 a8bc e075 ddbc be7f 8e3c
000001c0: 651c aebc 7488 803c 7eba d6bc bd9e 003d
000001d0: 9eab 943c e0db 533b 60c1 cc3b cac9 a63c
000001e0: ba1a 8ebc 885e 91bb 80f2 003b c284 e23c
000001f0: 4037 1fba 0077 c8bc a0f6 52bb be8e f3bc
-0.028774016 0.009991575 -0.017136622 0.031157676 0.034012523 -0.03426808 0.0037310645 -0.028107142
0.006958727 0.01814657 0.009110317 -0.021780372 -0.0070816074 0.0030439794 -0.035676103 0.0017117746
-0.019891804 0.027061854 -0.023321986 -0.031201776 0.033538047 -0.022688419 0.0035339706 -0.03551226
0.032136012 -0.029164528 -0.027761936 0.030768517 0.0058798306 -0.032090213 -0.013520956 -0.00043665618
0.014529362 0.020460222 0.010760266 0.021807633 0.013380755 0.0240414 -0.030923065 -0.027495071
0.024596859 -0.035567358 0.01925021 0.017050762 -0.023757327 -0.027766008 0.00914282 -0.024140254
0.02023663 0.013034254 0.013466813 -0.005915085 0.007677071 -0.022988245 0.03006975 -0.02020207
-0.010441704 -0.004816452 0.012651861 -0.02589526 -0.027780175 0.032170903 0.02665335 0.012497574
0.019404631 -0.017500052 0.012806214 0.026299868 -0.008552674 -0.007063564 -0.01273229 -0.03200823
0.023802027 -0.03491639 0.017421827 0.014864493 0.020433635 0.017583009 -0.016983114 -0.021511994
-0.01799945 -0.033437144 -0.00043071434 0.017581549 0.015396062 0.0039856434 0.021398649 -0.034506544
-0.016717417 0.0066035837 -0.010656459 -0.00023050234 -0.018242799 -0.011324381 -0.018195132 0.016681172
-0.015821045 0.009351376 -0.03269328 0.0016794689 0.010733992 -0.015632983 0.013040416 -0.02461072
0.02176812 -0.009867188 -0.021530565 0.00032675266 -0.029365605 -0.020526558 -0.027033746 0.017394897
-0.021253774 0.015690066 -0.026211973 0.031401385 0.01814824 0.00323271 0.006248638 0.020359892
-0.017346729 -0.004436318 0.0019675791 0.027651194 -0.00060736015 -0.024470806 -0.0032190457 -0.02973115

fc1.weight f4 [128, 784]
00000000: 3ae3 eebc 78f3 ea3b b948 0b3d caba 30bc
00000010: b862 1a3c 7677 9e3c ee00 4abc c4c5 6d3c
00000020: 5c37 0dbd a81e cebc 6380 9dbc d31a 113d
00000030: c51d 0b3d 9407 debb 809d 623b 9009 cebc
00000040: d495 203c 7f17 063d 679c 97bc 880b c8bc
00000050: c030 623a e350 98bc e0c5 373b eedb e1bc
00000060: c968 0f3d 6585 dcbc 7b53 0b3d 5582 0abd
00000070: 0ada 09bd 78cd 4abc 10c1 cd3c 4a0e cabc
00000080: 5028 c1bc 8bc4 073d 42a8 f13c 9015 babc
00000090: ccd0 ddbc b78d 0dbd 0051 db39 98b0 973b
000000a0: 3085 a83b cea0 41bc b578 f7bc e893 aebc
000000b0: 7c55 58bc 388e 0bbd 086e 97bb b578 f3bc
000000c0: 5673 983c 006b 6f3b 2524 0f3d d325 dbbc
000000d0: ea3d 11bc 4096 eb3b 68b8 153c 8862 de3b
000000e0: 605c fe3b 1c29 5e3c fc48 2fbc 1c74 3e3c
000000f0: 106d 0e3c 1810 e3bc 2577 0e3d 7a29 9f3c
00000100: c2a9 fa3c ea42 2bbc 1805 9a3c f89a bc3c
00000110: 4078 c1ba 6a8e c1bc b8e5 083c 8823 973b
00000120: dae4 d43c da82 f23c a09d 3d3b c3a8 f3bc
00000130: b85c 65bc b8a6 e53b 177d 81bc e06f cf3b
00000140: 7f87 0dbd 80e0 4a3a 2015 62bb 1c0e 96bb
00000150: acec 843c 0e0d e73c ee8d a3bc 0c66 b4bc
00000160: 48d8 b13b 7061 3a3c 3afa ce3c e0a7 623b
00000170: e87d 983b 84c1 0bbc 88fe abbc ce4f 35bc
00000180: 781f 223c 24bc 3c3c 403f a33b 1bdd 083d
00000190: 48ba 6e3c f05d cd3b e007 04bc 0276 993c
000001a0: e2ec a23c 307f 863c 1ee6 be3c a88e 81bb
000001b0: f200 01bd a0bb cd3b 1c81 04bd 666f 58bc
000001c0: 9f88 0ebd dc74 20bc 70bc cd3b f3fb e8bc
000001d0: 0869 eebc 009d 94bb a2b1 803c 38d9 b53c
000001e0: 2a26 14bc 10de 69bb 3026 ce3c 1073 02bb
000001f0: d619 04bd ca80 e13c f060 b03c 5fb4 113d
00000200: 16ee a43c e416 b8bb b5e1 ffbc f0b0 833b
00000210: 6ada db3c 6008 173b 23d2 edbc dc1b 4bbc
00000220: 4034 d5ba b8d2 193c 6849 7e3c 28df b03c
00000230: 78d2 623c 6a87 28bc 8e91 81bc 2092 7d3b
00000240: 963f eb3c b8a3 38bc 906d b73c dab7 d4bc
00000250: 5829 8b3c f50f 06bd 4089 a03a 801d 783a
00000260: d09d 1abb 365b 0cbd 00e2 2abc c085 70ba
00000270: 2968 103d 608d 733b 8ed3 c53c cbed 00bd
00000280: 0e81 0bbd 1065 6dbb b4a1 583c bc50 72bc
00000290: 18f7 c13c 60e2 77bc 02c0 d53c da7a e93c
000002a0: a24b d33c b0f3 d5bc 3874 cebb 6401 f2bb
000002b0: 8eac a03c c719 113d 304a 8cbb 682f ed3b
000002c0: fcdc 463c 571a 113d d3e0 c2bc c845 ce3c
000002d0: 9c14 bc3c 2608 fe3c dfbe 0f3d e6e7 1cbc
000002e0: 101b 5f3c aee3 91bc a42e c2bb ca9f 2fbc
000002f0: 86fe 5cbc f866 aabc 3874 cc3b b080 3b3b
00000300: 4806 4f3c ea6f da3c 605a 38bb 54c3 8e3c
00000310: ca8d 65bc 8e5e 01bc dc97 9f3c 663a 27bc
00000320: 6727 a2bc 5417 a1bb 68a5 053c 853d 9fbc
00000330: 2e47 e33c 1cfe 7dbc 30c8 403b 808d 543b
00000340: c1f7 003d 00e6 8cba 1c86 6d3c 589d bc3c
00000350: 802f 163a 5892 1e3c 5a39 dc3c a6e4 54bc
00000360: 2c03 9f3c 273f 093d 6eab d5bc 7015 793c
00000370: 4e0a bf3c dc71 4f3c 2e0a 56bc dc76 acbb
00000380: 03e1 bfbc ca23 d23c 127f ec3c 5035 c43b
00000390: e3a2 90bc e07d e4ba 9635 e53c 7a63 c8bc
000003a0: 4680 01bd 564e 9b3c 321d a03c c306 013d
000003b0: 686e f3bc d287 1fbc 38cb e8bc 70e6 5b3b
000003c0: 5fd5 053d e0e0 53bb 4abe 8e3c 184e 4fbc
000003d0: e082 a4ba a093 33bb 9667 9f3c 0087 dabb
000003e0: bc16 b0bc 0e5e 883c 308d afbb 8a25 973c
000003f0: 3099 173c 384e 45bc b7db 97bc 701a d23c
-0.029161084 0.007170137 0.0340049 -0.0107867215 0.00942295 0.019344073 -0.012329323 0.014512483
-0.034476623 -0.025161102 -0.019226259 0.035425972 0.033963937 -0.0067758057 0.003457874 -0.025151044
0.009801347 0.03273725 -0.018507196 -0.024419561 0.000862848 -0.018593257 0.0028041527 -0.027570691
0.03501204 -0.026919076 0.03401516 -0.0338157 -0.033655204 -0.012378089 0.025116473 -0.024665017
-0.023578793 0.033146422 0.029499177 -0.02271536 -0.027077101 -0.034558978 0.00041831285 0.004629206
0.0051428303 -0.011818124 -0.030208925 -0.021310762 -0.013203975 -0.034071177 -0.004621271 -0.029720644
0.018609684 0.0036532283 0.03494658 -0.026751434 -0.008864859 0.007189542 0.009138204 0.006786648
0.007762477 0.013559606 -0.010698553 0.011624362 0.008692995 -0.027717635 0.034781594 0.019428957
0.030598525 -0.010452965 0.018801257 0.023023114 -0.0014760569 -0.023627479 0.0083555505 0.00461239
0.025988031 0.02960341 0.0028933063 -0.029743558 -0.013999157 0.0070084 -0.015806718 0.006330475
-0.034553047 0.00077391416 -0.0034497455 -0.0045793187 0.016226135 0.028204467 -0.019965138 -0.022021316
0.005427394 0.01137577 0.025265802 0.0034584925 0.004653681 -0.008530024 -0.020995393 -0.01106639
0.009895198 0.011519466 0.004981905 0.033413988 0.01457078 0.0062673017 -0.008058518 0.018733028
0.019888345 0.01641807 0.023303088 -0.0039537735 -0.031495042 0.00627847 -0.03234969 -0.013210153
-0.03479826 -0.009793486 0.006278567 -0.028440451 -0.029102817 -0.0045353174 0.015709702 0.022198305
-0.009042302 -0.0035685338 0.025164694 -0.0019905008 -0.0322512 0.027527232 0.021530598 0.035572406
0.02013306 -0.005617963 -0.031235555 0.0040188953 0.026837546 0.0023045763 -0.029030865 -0.012396779
-0.0016266182 0.009388618 0.015520431 0.021590784 0.013844125 -0.0102861915 -0.015816476 0.0038691834
0.028716844 -0.011269502 0.02239111 -0.025966574 0.016987488 -0.03273006 0.0012247935 0.0009464845
-0.0023592599 -0.034266673 -0.010429859 -0.0009175204 0.035255585 0.0037163123 0.024148729 -0.031476777
-0.034058623 -0.0036223568 0.013222147 -0.014789756 0.023677394 -0.015129656 0.026092533 0.028500963
0.0257929 -0.026117176 -0.0063004754 -0.0073854197 0.01961353 0.035424974 -0.004281305 0.0072383173
0.012137648 0.03542551 -0.023788845 0.025179759 0.022959046 0.031009745 0.03509414 -0.009576773
0.013617292 -0.017808761 -0.00592597 -0.010719249 -0.0134884175 -0.020801052 0.0062394403 0.002861064
0.012635775 0.026664693 -0.002813004 0.017427124 -0.014010856 -0.007896079 0.019481592 -0.010206794
-0.01979418 -0.004916111 0.008157112 -0.019438514 0.027743902 -0.015502479 0.0029416196 0.0032432973
0.031486277 -0.0010749698 0.014497306 0.023024246 0.0005729124 0.009678446 0.026882816 -0.012993967
0.019410692 0.033507492 -0.02608272 0.015202865 0.023320343 0.0126614235 -0.01306395 -0.0052631926
-0.023422724 0.025651831 0.028869186 0.0059878007 -0.017655795 -0.0017432533 0.027979653 -0.024461497
-0.03161647 0.018958252 0.019545171 0.03150059 -0.029715732 -0.009736972 -0.028417215 0.00335541
0.03267419 -0.003233008 0.017424721 -0.012652896 -0.0012551211 -0.0027401224 0.019458573 -0.0066689253
-0.021495216 0.016646411 -0.005357407 0.018450517 0.009252831 -0.012042575 -0.018537385 0.025647372

fc2.bias f4 [10]
00000000: 1c8d 12bd 074b b33d 50e4 e83b 8e40 7c3d
00000010: 44c7 93bd 2448 a6bc 8e9e 253d 0851 ec3c
00000020: d07e b9bb a02c a23b
-0.035779104 0.08754545 0.007107295 0.061585 -0.07215741 -0.020298071 0.040434413 0.028847232
-0.005660869 0.0049491674

fc2.weight f4 [10, 128]
00000000: ff06 a73d fdd2 12bd 347d f13c d423 fb3c
00000010: 5046 01bc 7a47 713d a80b e13c 4aab 1fbd
00000020: db7d afbd 95c7 823d 68db c23c 5c36 a1bc
00000030: 2095 213c f891 8fbc f0f1 cabc 1594 943d
00000040: 6543 af3d b0e9 8fbd 902c abbd 0a33 3c3d
00000050: 7cd0 b6bc c76b 9dbd 645d 0f3d e5b2 6abd
00000060: 58d6 a3bd cc2d a8bd 5a5a 6f3d 2986 a53d
00000070: c4c1 79bd 1bda 3abd f628 30bd ee05 05bd
00000080: d8ea 83bd 8899 ac3c 7659 313d 78e7 e3bc
00000090: aa58 76bd ffaf 9d3d 2d77 60bd 25bc 9ebd
000000a0: abe8 903d faa5 4d3d a02d 54bb 60d0 4a3c
000000b0: 10ec ec3b 0173 933d 4c48 b1bc 20ec 7b3c
000000c0: 1e50 023d 70cf ee3c f21e 81bd c29b 433d
000000d0: febd 063d 9233 05bd c012 52bc dcfc c53c
000000e0: 019e 813d cd9b 973d 9a4b 23bd 2d14 24bd
000000f0: 0817 3e3c 50c6 a53b 7257 51bd 18ad 0ebd
00000100: 5e09 3f3d e820 5ebd 054e 953d 3e6a 2fbd
00000110: b298 43bd 22ef 55bd 98af a7bc 8e99 6b3d
00000120: 5035 b2bd f0f3 f6bb ceec 0c3d 6e21 25bd
00000130: 9c9f ea3c 0850 20bc 68f2 babc cd1c 9c3d
00000140: 6edb 463d 1eeb 423d 2203 10bd 5b46 8bbd
00000150: 0053 fa3a bdfc a33d 1e35 2e3d 326b e3bc
00000160: edbc 863d 4679 5abd a8a0 84bc caa6 533d
00000170: 58e3 073d 4789 8a3d f1c1 aabd cae4 163d
00000180: dcea afbc f76b 88bd 40c0 ff3b 4c6f cebc
00000190: 396d a63d 7847 8dbd 5a8c a7bd 3f2d 04bd
000001a0: 281a ab3c 33b6 82bd 3c3b 853c 4764 5dbd
000001b0: d3d7 ad3d 05ea 11bd 6113 26bd 1683 373d
000001c0: 00f3 a53a 5625 1c3d 28eb 0ebc 50a3 2c3c
000001d0: 0726 893d bc44 ba3c f6fa 5abd f0f3 b9bc
000001e0: 8cc2 06bd 5c7b 903c 84b7 f9bc 1be1 17bd
000001f0: 3077 473c 08dc c03c 9028 3abc 88dd c53c
00000200: 486d ddbc 621a fcbc d781 7dbd 5f9d 4dbd
00000210: 2c7b ad3c 6b68 84bd 73c6 9b3d 3adc f7bc
00000220: 35f9 ae3d 33de b33d 7837 23bd f45e 6fbd
00000230: d172 8abd 3600 2a3d c0f5 9a3a dfff 913d
00000240: 5cab 86bd 8bdd 833d a214 5d3d 4847 083d
00000250: dce4 f73c 2953 6cbd 2298 633d eb40 ab3d
00000260: 3862 6bbc f946 8d3d 604c a43c 0080 4db9
00000270: 08cf 00bc 798e 8c3d ca75 a9bd d04e bfbc
00000280: 006f 0fbb b4b9 9cbc ae88 3a3d eef7 293d
00000290: 08a6 20bc c4f6 98bd 8534 a73d 38ef 17bc
000002a0: 79ec 843d d4c5 b7bc dcca e93c d79c b03d
000002b0: 3e4b 3a3d d676 4b3d 7d59 823d 9009 4e3c
000002c0: ba53 e7bc 0342 3cbd 3ca9 95bc 30dc 113d
000002d0: 133a 49bd c8a4 5d3c bb3c 813d 8cf9 933c
000002e0: 805f 53bd 7ab3 17bd 0087 3abc a8fa 0c3c
000002f0: 5f9f 16bd 9909 9a3d ef13 8a3d a9a3 b1bd
00000300: 7da6 933d 5058 a1bb f22c 44bd f644 6e3d
00000310: ea91 063d b230 b3bd 5c57 1cbd fa86 713d
00000320: a04a 43bd df1e b43d 922a e5bc 2678 513d
00000330: acc9 fa3c 952a 9f3d 8626 9fbd f0a1 a7bc
00000340: 1e6a a1bd 6efe e7bc b8f2 da3c bf56 a93d
00000350: f420 cc3c de2e b0bd 012d b3bd 94cd 8dbd
00000360: 86c1 80bd d0ac cd3c 8883 81bd 1e0b 8bbd
00000370: 2070 89bd b8b9 5e3c fec7 17bd c788 8b3d
00000380: 0ea2 d4bc e092 cdbb ea71 6bbd 3800 d43c
00000390: d81b e43c 3140 8f3d f266 6a3d 3073 d7bb
000003a0: b8bd 063c aa66 4f3d 94ba 69bd 406d f6bb
000003b0: b038 133d 965b 4c3d d082 4dbc f380 93bd
000003c0: dcdf f83c 6b73 36bd 0a99 96bd 1ab5 b3bd
000003d0: e9fa 8abd e84b ac3c 60c5 53bc 6f42 9d3d
000003e0: 0d9f 2dbd d78d 1cbd f3c7 49bd 66cc 183d
000003f0: 803a 913b 250b 7dbd 6e03 3e3d de78 66bd
0.08155631 -0.035845745 0.029478647 0.030656733 -0.007890299 0.058906056 0.027471378 -0.038981713
-0.08568927 0.063857235 0.023786262 -0.01967924 0.009862214 -0.017525658 -0.024773568 0.07254807
0.08557776 -0.07026994 -0.08358109 0.045947112 -0.02231621 -0.076865725 0.035001174 -0.057299513
-0.07999867 -0.0821186 0.058435775 0.0808223 -0.060975805 -0.045618158 -0.043007813 -0.032476358
-0.06441277 0.021069303 0.043298207 -0.027820334 -0.06014315 0.07699584 -0.054801155 -0.077507295
0.07075628 0.050207116 -0.0032375827 0.012378782 0.0072302893 0.0719967 -0.02164092 0.015376121
0.031814687 0.029151648 -0.063047305 0.047755964 0.032896034 -0.032519884 -0.012821853 0.024168424
0.06328965 0.074027635 -0.03986702 -0.040058304 0.011602171 0.005059041 -0.051108785 -0.034833044
0.046639793 -0.0542306 0.07290272 -0.04282593 -0.047753043 -0.052230008 -0.020469472 0.057519488
-0.08701575 -0.007536404 0.034405522 -0.040315084 0.02864056 -0.009784706 -0.022820666 0.07622681
0.04854911 0.047587506 -0.035159238 -0.068005286 0.0019098222 0.080071904 0.042531125 -0.027761076
0.065790035 -0.05333831 -0.016189888 0.051672734 0.033175796 0.06764465 -0.08337773 0.036839284
-0.021474294 -0.06661218 0.0078049004 -0.025199555 0.08126301 -0.06898397 -0.08181067 -0.032269713
0.020886496 -0.06382408 0.016263597 -0.05405071 0.08488431 -0.03562357 -0.040545825 0.044802748
0.0012660921 0.038121544 -0.008723058 0.010536984 0.06696706 0.022737853 -0.05346199 -0.022699326
-0.032900378 0.017636947 -0.030483015 -0.03707991 0.012174413 0.02354242 -0.01136221 0.024153486
-0.027029648 -0.030774299 -0.061891403 -0.05019891 0.021176897 -0.06465229 0.076062106 -0.03025638
0.08543626 0.087826155 -0.03984782 -0.058440164 -0.06760181 0.041504107 0.0011822507 0.07128882
-0.06575653 0.0643874 0.053974755 0.033271104 0.030260496 -0.057696495 0.055565007 0.083619915
-0.014366679 0.068983026 0.02005595 -0.00019598007 -0.00786186 0.06863112 -0.082744196 -0.02335301
-0.002188623 -0.019131519 0.045540504 0.04149621 -0.00980521 -0.07468942 0.08164314 -0.009273343
0.06490416 -0.022433199 0.028539114 0.08623665 0.045481913 0.049673878 0.06364725 0.012575522
-0.028238166 -0.04596139 -0.018269174 0.035610378 -0.04912765 0.013528056 0.063104115 0.01806333
-0.051604748 -0.037036397 -0.011384726 0.008604683 -0.036773082 0.07521362 0.06742083 -0.08673794
0.072094895 -0.0049238577 -0.047894426 0.058171235 0.032854 -0.08749522 -0.03816925 0.058966614
-0.04767859 0.08794951 -0.0279744 0.051139973 0.030613743 0.07771794 -0.0777102 -0.02046296
-0.07881568 -0.028319564 0.026727065 0.08268499 0.024918057 -0.08602689 -0.08748818 -0.069239765
-0.06286912 0.025106817 -0.06323916 -0.0678923 -0.06710839 0.0135940835 -0.03705596 0.068131976
-0.02595618 -0.0062736124 -0.057481684 0.02587901 0.027845308 0.069946654 0.057227083 -0.0065750107
0.008223943 0.050635017 -0.0570627 -0.007520348 0.035942733 0.04989203 -0.012543395 -0.072023295
0.030380182 -0.044543665 -0.07353409 -0.08774777 -0.067861386 0.021032289 -0.012925476 0.07678687
-0.04238801 -0.038221207 -0.049262952 0.037304305 0.0044320226 -0.061778206 0.04638999 -0.05626761
