src/demo/cnn.onnx (onnx, 407451 bytes, 4 tensors)

fc1.bias f4 [128]
-0.012565613 -0.012977771 0.035300415 -0.023794882 0.00026731566 -0.0034498088 -0.029206324 -0.0088144075
0.0049692355 -0.031330787 0.027193379 -0.0012831166 0.007888146 0.031185519 0.009015758 0.013434168
0.018164545 0.02425119 -0.013331244 0.0081025995 0.020517569 0.015968986 0.034657072 -0.02636939
-0.011841672 -0.019193817 0.029567476 0.01668761 -0.03516857 0.0026430152 -0.0004835911 0.019730866
-0.029851124 0.032015707 -0.013739629 0.010948338 0.011455778 0.0013171211 0.010932375 0.0014579855
0.020371068 -0.007019805 -0.03035769 0.017174985 0.032948468 -0.00920701 0.0287234 -0.010492967
0.027997795 -0.021487987 0.030085232 0.018165682 0.012069691 0.032036852 -0.02750491 -0.013424529
0.029262234 0.0074900277 -0.009676062 -0.021390036 -0.016932182 -0.0034433417 -0.0027830116 -0.00080851093
-0.034729183 0.031139914 0.004481863 -0.024197856 0.025617912 -0.017938653 0.015684124 0.012688525
-0.0048490297 0.016726516 0.003479384 0.023700327 -0.017881807 0.031932954 0.031902786 -0.03536135
-0.029222067 0.03503785 0.026706252 0.02303689 -0.010165092 -0.014177477 -0.020168608 -0.01266491
0.007313423 -0.002517365 0.0012914129 0.01679919 0.021498796 0.028694857 0.01986295 0.029845927
-0.00044881925 -0.0033031069 -0.023299813 -0.0205191 0.028840456 -0.026296876 -0.00504799 0.0047673695
-0.013661794 -0.016632825 -0.030999381 -0.034069322 0.015466884 0.017825294 -0.032175083 -0.0053482447
-0.00019463897 -0.005844334 0.018979404 0.02291876 0.023668937 0.034263674 -0.025328096 0.022470616
-0.023823684 0.030501608 -0.028129686 0.014817465 0.034075838 0.031743 -0.013117194 0.0073682256
00000000: 00e0 4dbc b8a0 54bc 2b97 103d 7ced c2bc
00000010: 8026 8c39 3016 62bb 1a42 efbc 4e6a 10bc
00000020: f8d4 a23b b654 00bd a6c4 de3c 402e a8ba
00000030: 483d 013c c678 ff3c d4b6 133c fc1a 5c3c
00000040: d0cd 943c 6eaa c63c 4a6b 5abc c4c0 043c
00000050: 7614 a83c 64d1 823c 93f4 0d3d 9e04 d8bc
00000060: 9203 42bc 5a3c 9dbc 7e37 f23c 74b4 883c
00000070: eb0c 10bd 7036 2d3b 808a fdb9 a0a2 a13c
00000080: 588a f4bc e722 033d 2e1c 61bc a860 333c
00000090: 04b1 3b3c 40a3 ac3a b41d 333c e019 bf3a
000000a0: 3ae1 a63c 6406 e6bb b1b0 f8bc 8eb2 8c3c
000000b0: f9f4 063d 00d9 16bc 564d eb3c b2ea 2bbc
000000c0: a25b e53c 9307 b0bc 4e75 f63c 32d0 943c
000000d0: f4bf 453c 1339 033d fa51 e1bc 8ef2 5bbc
000000e0: 5ab7 ef3c e86e f53b 5888 1ebc 283a afbc
000000f0: 5cb5 8abc b0a9 61bb 3063 36bb 40f2 53ba
00000100: 3040 0ebd 2219 ff3c 98dc 923b 953a c6bc
00000110: a8dc d13c 15f4 92bc fe7b 803c 88e3 4f3c
00000120: 9ce4 9ebb 0c06 893c 6006 643b 3027 c23c
00000130: de7c 92bc 21cc 023d 7fac 023d 10d7 10bd
00000140: 1e63 efbc d983 0f3d 12c7 da3c dcb7 bc3c
00000150: 7c8b 26bc a648 68bc a338 a5bc 7c80 4fbc
00000160: 70a5 ef3b 60fa 24bb a044 a93a 749e 893c
00000170: 3e1e b03c 7a11 eb3c a0b7 a23c 727f f43c
00000180: 804f ebb9 f078 58bb 40df bebc ac17 a8bc
00000190: d242 ec3c 8c6c d7bc 9c69 a5bb 9837 9c3b
000001a0: b8d5 5fbc 9041 88bc 6af2 fdbc 468c 0bbd
000001b0: d068 7d3c 5a06 923c 05ca 03bd 5440 afbb
000001c0: 0018 4cb9 d481 bfbb b27a 9b3c 20c0 bb3c
000001d0: 5ce5 c13c 1158 0c3d de7c cfbc 4c14 b83c
000001e0: e329 c3bc 82de f93c 3a70 e6bc f4c4 723c
000001f0: 1b93 0b3d f304 023d 80e9 56bc 2871 f13b

fc1.weight f4 [128, 784]
-0.019032726 0.024155613 0.017487034 0.018062618 0.017334886 0.007262606 0.0035276338 0.022017378
0.0021323934 -0.008375403 -0.013086038 0.019404076 -0.028175572 0.034418177 0.016519088 0.025140803
-0.0042604245 -0.035450004 0.030588437 -0.034817226 0.014107324 0.004381221 0.035459857 -0.028196217
-0.021616817 -0.0134384595 0.007865816 0.028599676 0.033797864 -0.009719713 -0.03471668 -0.035337158
-0.03287558 0.00420231 0.030305523 0.0035076179 0.02564178 -0.023925688 -0.0025481768 -0.03026623
0.0029870197 0.010424618 0.028604958 0.022951964 0.00661584 -0.017732285 -0.02237707 0.0033407845
0.0061009564 0.030651655 -0.034307852 -0.012827277 0.008211222 0.012500055 0.033931267 0.016641606
-0.034826666 0.022049036 0.030948844 -0.011447638 0.0355098 0.00883808 -0.0043372437 0.015768085
0.00093382224 0.005162541 0.0050931573 0.008861512 0.0046466254 0.0056430288 0.0068624765 -0.024822429
0.009134408 -0.027732395 0.008120045 0.011992551 0.029190633 -0.018086277 -0.004271578 -0.01391164
0.027052242 0.00047151 0.027935129 0.0013501346 0.02765977 -0.02696015 0.0030324385 -0.0038207956
-0.027772274 -0.0071922876 -0.0043439046 -0.006870564 0.006821718 -0.018159289 0.0011512041 -0.010418765
0.0043788776 -0.0041196905 -0.015359782 0.028247822 -0.005077064 0.019218642 -0.021585912 0.028678518
0.013130508 0.032579612 -0.02737839 -0.032114357 -0.023572868 0.026772395 -0.0038757324 -0.010787517
-0.032628156 0.0042365864 0.027328838 0.030172374 0.03141008 0.031642046 -0.004899144 -0.030850694
0.026177365 -0.031891633 0.009038046 -0.016539255 0.0046663806 0.017328117 -0.027962163 0.022705764
-0.020081056 0.018928174 -0.020563578 -0.034088414 -0.012699647 0.015434876 -0.009478373 0.013678718
0.0145035945 0.0025411919 0.023657791 0.015975907 0.021620587 -0.0052145943 0.029698815 -0.019324044
-0.013102554 0.026360866 0.024792966 -0.023810353 0.020179499 0.007589005 -0.010019749 0.019167773
0.018071864 -0.031139823 -0.0069566034 0.030566346 -0.014933562 0.027067754 0.028503042 -0.00837943
0.0020804405 -0.018703993 -0.005390171 0.0015696809 -0.004351355 0.034096275 -0.027747313 -0.035034608
0.020207636 -0.025650516 0.010687277 0.011644989 -0.0005277395 0.0142978355 -0.017135412 -0.008525712
-0.012947449 0.009339329 -0.02521176 -0.027337212 -0.014635669 -0.028471591 0.02140738 -0.024888922
-0.018544206 0.004824519 0.021316916 -0.0043920316 -0.014723754 0.035268273 0.0024026409 -0.03510904
0.016851533 -0.0010400824 0.0072351657 0.02004436 -0.010342233 -0.00020450354 0.021053366 -0.028487582
-0.019117735 -0.014479136 0.015409112 -0.014107836 0.012610186 0.009453174 0.013321474 0.0050789677
-0.015944775 0.00097488984 -0.023254383 -0.01700748 0.034545373 -0.026709285 0.008821014 -0.021933088
0.018245798 -0.012778556 -0.026325678 -0.018249236 -0.021107445 -0.01729634 0.019218728 -0.035667744
-0.026744941 0.00095706433 -0.0024820976 -0.0023316108 -0.009366313 -0.006186256 -0.009536719 -0.0077092648
0.02594569 -0.028683655 -0.024372905 0.010099817 -0.019470429 -0.023963477 -0.013973905 0.014822956
-0.033267125 -0.008287774 -0.02782043 0.020374343 -0.014581008 0.006071802 -0.0049237646 -0.0009855889
-0.026785035 0.016932212 -0.014076216 0.010085959 -0.01917728 -0.012098143 -0.008375164 0.01552498
00000000: 85ea 9bbc fee1 c53c f840 8f3c 0ef8 933c
00000010: e401 8e3c 28fb ed3b e02f 673b ca5d b43c
00000020: a0bf 0b3b fc38 09bc d266 56bc 4cf5 9e3c
00000030: 75d0 e6bc 13fa 0c3d 0a53 873c 16f4 cd3c
00000040: 089b 8bbb 0634 11bd 9a94 fa3c 829c 0ebd
00000050: 6822 673c 5890 8f3b 5b3e 113d c1fb e6bc
00000060: c015 b1bc fc2c 5cbc a0df 003c de49 ea3c
00000070: a16f 0a3d 6e3f 1fbc 1433 0ebd b2bd 10bd
00000080: 8ba8 06bd 88b3 893b 4a43 f83c 10e0 653b
00000090: b60e d23c ceff c3bc 50ff 26bb e3f0 f7bc
000000a0: e0c1 433b 04cc 2a3c f254 ea3c c205 bc3c
000000b0: b0c9 d83b 4c43 91bc 1e50 b7bc 10f1 5a3b
000000c0: 88ea c73b 2e19 fb3c 6486 0cbd 8029 52bc
000000d0: 5c88 063c 08cd 4c3c 83fb 0a3d fa53 883c
000000e0: 68a6 0ebd 2ea0 b43c 6e88 fd3c e08e 3bbc
000000f0: b972 113d 98cd 103c 701f 8ebb 122c 813c
00000100: c0cb 743a 882a a93b 80e4 a63b e02f 113c
00000110: b842 983b 28e9 b83b a0de e03b 6858 cbbc
00000120: 7ca8 153c 0c2f e3bc f009 053c 687c 443c
00000130: 3221 ef3c ac29 94bc 98f8 8bbb a6ed 63bc
00000140: aa9c dd3c 0035 f739 36d8 e43c 00f7 b03a
00000150: be96 e23c 88db dcbc e0bb 463b 5066 7abb
00000160: ae82 e3bc 48ad ebbb 5057 8ebb 7822 e1bb
00000170: b888 df3b cac2 94bc 00e4 963a 78b3 2abc
00000180: b07c 8f3b 78fe 86bb 98a7 7bbc fa67 e73c
00000190: 805d a6bb 6a70 9d3c f0d4 b0bc 36ef ea3c
000001a0: 5821 573c 3372 053d a548 e0bc 588a 03bd
000001b0: e31b c1bc c851 db3c 0000 7ebb 20be 30bc
000001c0: 1aa5 05bd 10d3 8a3b bae0 df3c 0e2c f73c
000001d0: dba7 003d 179b 013d 0089 a0bb 98ba fcbc
000001e0: ea71 d63c cda0 02bd 5014 143c 557d 87bc
000001f0: 70e8 983b b2f3 8d3c e810 e5bc 7001 ba3c
00000200: 0781 a4bc 420f 9b3c f374 a8bc 4ba0 0bbd
00000210: 2e12 50bc 90e2 7c3c 2e4b 1bbc b41c 603c
00000220: 7ca0 6d3c 208a 263b fccd c13c e8df 823c
00000230: a81d b13c 30df aabb ee4a f33c 754d 9ebc
00000240: 18ac 56bc bef2 d73c 9e1a cb3c ee0d c3bc
00000250: 7a4f a53c 30ad f83b e029 24bc bc05 9d3c
00000260: 720b 943c f118 ffbc 38f4 e3bb 4666 fa3c
00000270: e6ab 74bc 32bd dd3c 367f e93c e049 09bc
00000280: 0058 083b 1e39 99bc 08a0 b0bb c0bd cd3a
00000290: d095 8ebb 89a8 0b3d 554e e3bc 7380 0fbd
000002a0: 7c8a a53c 0821 d2bc b019 2f3c a0ca 3e3c
000002b0: 0058 0aba 7841 6a3c 905f 8cbc 6eaf 0bbc
000002c0: 8a21 54bc fc03 193c e588 cebc 4af2 dfbc
000002d0: 72ca 6fbc 413d e9bc 885e af3c dae3 cbbc
000002e0: 05ea 97bc 0017 9e3b d0a0 ae3c 08eb 8fbb
000002f0: e63b 71bc 7775 103d a075 1d3b 7fce 0fbd
00000300: 3a0c 8a3c 6053 88ba f814 ed3b 1234 a43c
00000310: 7872 29bc 0070 56b9 1c78 ac3c ca5e e9bc
00000320: cc9c 9cbc e639 6dbc 8076 7c3c 8e24 67bc
00000330: f49a 4e3c 7ce1 1a3c 5042 5a3c 786d a63b
00000340: 9e9e 82bc c08f 7f3a fa7f bebc 4553 8bbc
00000350: 737f 0d3d 6ecd dabc 0486 103c 05ad b3bc
00000360: 3678 953c 265d 51bc f3a8 d7bc 6c7f 95bc
00000370: 85e9 acbc 0eb1 8dbc 9870 9d3c 5718 12bd
00000380: 3518 dbbc 80e3 7a3a b0aa 22bb f0cd 18bb
00000390: 2a75 19bc 14b6 cabb e63f 1cbc 009e fcbb
000003a0: 0e8c d43c fcf9 eabc b0a9 c7bc b479 253c
000003b0: 7380 9fbc 0e4f c4bc cef2 64bc fcdb 723c
000003c0: 1c43 08bd 72c9 07bc ace7 e3bc 18e8 a63c
000003d0: 2ee5 6ebc f8f5 c63b 8857 a1bb e02e 81ba
000003e0: 4a6c dbbc 6cb5 8a3c ee9f 66bc 943f 253c
000003f0: ac19 9dbc 4a37 46bc fc37 09bc 7c5c 7e3c

fc2.bias f4 [10]
0.07498642 0.054871015 0.07997725 -0.023858227 0.026957355 0.067730896 -0.03986297 0.025265753
0.07064936 -0.08708102
00000000: 7b92 993d 6ec0 603d 1dcb a33d 5472 c3bc
00000010: acd5 dc3c 7fb6 8a3d 5b47 23bd 20fa ce3c
00000020: 9db0 903d 8957 b2bd

fc2.weight f4 [10, 128]
0.0014778376 0.062063016 0.07849764 0.03257157 0.027340204 -0.019896992 -0.009467818 -0.08231486
-0.030905273 -0.053708106 0.01250498 -0.020636596 0.018843658 -0.017343804 0.023443528 -0.07961964
0.0511188 0.0076563954 -0.052360147 -0.035305478 -0.041454334 0.00031041354 0.05768367 0.0316573
-0.0033813491 0.080311246 0.08002844 -0.021996617 -0.06520736 -0.04968601 0.04744432 -0.05836897
0.08466794 -0.05512343 -0.08719155 -0.009709328 -0.028373994 -0.00023473799 -0.05522672 0.008045919
-0.019413859 -0.061248474 -0.0474012 0.041308396 0.08183887 -0.06763829 0.061246045 -0.062465884
0.0075545833 0.027383305 -0.05206376 0.011943333 -0.08265203 -0.052051473 0.01589612 -0.014481604
0.06414955 0.04443478 0.008383669 -0.06495944 0.0038765743 0.073765405 -0.079987675 -0.044238966
-0.08587102 0.021954864 -0.01957798 0.008998752 -0.08353473 0.08492387 0.050761364 -0.041861113
0.010630697 -0.045061164 0.07517896 -0.00064595044 -0.061532058 0.04070229 0.075774945 0.04590159
0.0644378 0.0455477 0.05989691 0.055032335 0.07849712 0.02995342 -0.051711317 0.046113648
-0.0045270175 0.017753094 0.013609014 0.068948604 0.073776774 -0.026287157 -0.042368036 0.00330659
-0.08660508 -0.08116795 0.08211664 0.07743428 0.053556226 -0.039753467 -0.05376296 -0.020100519
0.047048025 -0.004759982 -0.07241265 0.06466482 -0.07900518 0.02422385 -0.05681667 -0.043816317
-0.0035602152 -0.04254817 0.08110768 0.05900123 -0.07268674 0.051580362 0.022464596 -0.044573665
0.019843176 0.041329987 0.07368366 -0.026969653 0.007285781 -0.021946266 -0.06267412 -0.0828446
-0.06710183 0.056750096 0.014857419 0.055250876 0.035164766 -0.028502628 -0.05923336 0.06692838
-0.028222099 -0.0815373 -0.016234167 0.061110653 0.055450656 0.06023919 0.07494516 0.017860562
0.06986361 0.04222662 -0.08703467 0.07392088 0.019692421 0.05592165 -0.06798195 -0.017033018
-0.0016418695 -0.058197536 0.0608527 0.054662667 0.04884518 0.07418219 -0.061887443 0.036452197
-0.051680602 0.043990694 0.07028919 -0.022862919 -0.055963963 -0.076291315 -0.04691417 0.069161095
-0.052370965 -0.079608746 0.032650627 -0.06937942 -0.00033959 0.06645227 0.040375926 -0.0074041784
-0.001033619 -0.061912034 0.030481145 0.028904773 0.026987098 -0.013996504 0.07053634 -0.0702869
0.018957876 -0.03412843 0.06282606 -0.048822824 -0.011436209 0.07992784 0.039326496 -0.06563125
0.0021006167 0.0005617738 -0.038386982 0.057544105 -0.022827342 0.057214327 0.08418963 0.01859457
-0.038668457 -0.031889286 -0.023345642 0.07174728 0.086596556 0.023395143 -0.08723719 0.049256213
0.071477555 0.06921487 -0.08764421 -0.08272513 -0.07853455 -0.064715154 0.059474118 0.0027810186
0.081486456 -0.049252354 -0.006910555 0.04278765 -0.051057354 -0.03780353 0.03355912 0.066353135
0.040001474 -0.03868539 -0.050973378 0.0125229955 0.011222318 -0.028588902 -0.040048588 0.052582495
0.04497116 -0.01691395 -0.08768469 -0.031482074 -0.081372954 0.021792293 -0.023408748 0.084505804
-0.017066702 0.0074636564 -0.012155034 0.024763033 0.006103568 -0.042155128 -0.033396423 -0.039723057
-0.04664992 -0.03935837 -0.020190634 -0.06271947 0.019882731 0.012031756 -0.0040281117 -0.0112397075
00000000: 00b4 c13a ca35 7e3d 5fc3 a03d c469 053d
00000010: 90f8 df3c 04ff a2bc e81e 1bbc b194 a8bd
00000020: 0e2d fdbc 08fd 5bbd b0e1 4c3c 140e a9bc
00000030: 045e 9a3c 9814 8ebc a40c c03c 9f0f a3bd
00000040: f261 513d 80e2 fa3b 9877 56bd 7a9c 10bd
00000050: 05cc 29bd 00bf a239 b645 6c3d 16ab 013d
00000060: a099 5dbb 397a a43d f3e5 a33d 4032 b4bc
00000070: 708b 85bd 8f83 4bbd fa54 423d 4d14 6fbd
00000080: 6366 ad3d 1bc9 61bd 7c91 b2bd e013 1fbc
00000090: 9470 e8bc 0024 76b9 6a35 62bd 08d3 033c
000000a0: d009 9fbc aedf 7abd c327 42bd fe32 293d
000000b0: 239b a73d f285 8abd 22dd 7a3d 3adc 7fbd
000000c0: 708c f73b f452 e03c cf40 55bd f8ad 433c
000000d0: 7845 a9bd ed33 55bd 9438 823c 4044 6dbc
000000e0: d760 833d 3e01 363d a85b 093c 7409 85bd
000000f0: 200e 7e3b 5112 973d 94d0 a3bd eb33 35bd
00000100: 25dd afbd b0da b33c 0062 a0bc 806f 133c
00000110: 4214 abbd 91ec ad3d 26eb 4f3d 8f76 2bbd
00000120: 602c 2e3c 0e92 38bd 6df7 993d 0055 29ba
00000130: 0a09 7cbd 72b7 263d e52f 9b3d 4e03 3c3d
00000140: f7f7 833d 3a90 3a3d 7656 753d 9669 613d
00000150: 19c3 a03d e060 f53c 3fcf 53bd aae1 3c3d
00000160: 6057 94bb f06e 913c 58f8 5e3c ed34 8d3d
00000170: 4718 973d 2a58 d7bc 1b8a 2dbd 60b3 583b
00000180: 015e b1bd 623b a6bd c52c a83d dd95 9e3d
00000190: c65d 5b3d 88d4 22bd 8d36 5cbd d8a9 a4bc
000001a0: 6eb5 403d a0f9 9bbb 154d 94bd fd6e 843d
000001b0: 78cd a1bd 1871 c63c 99b8 68bd bd78 33bd
000001c0: 8052 69bb fd46 2ebd c91b a63d 46ab 713d
000001d0: c9dc 94bd ee45 533d ac07 b83c e092 36bd
000001e0: 288e a23c a249 293d 75e7 963d 76ef dcbc
000001f0: 90bd ee3b a8c8 b3bc 4a5b 80bd 6eaa a9bd
00000200: af6c 89bd ca72 683d 886c 733c be4e 623d
00000210: ee08 103d 587e e9bc ae9e 72bd bf11 893d
00000220: 0832 e7bc 07fd a6bd 84fd 84bc 2a4f 7a3d
00000230: 3a20 633d 5ebd 763d d97c 993d 5050 923c
00000240: a714 8f3d d2f5 2c3d 3c3f b2bd d563 973d
00000250: 0052 a13c 1a0e 653d 1f3a 8bbd d488 8bbc
00000260: 0034 d7ba 8a60 6ebd ae40 793d f6e5 5f3d
00000270: e211 483d d5ec 973d b07d 7dbd e64e 153d
00000280: 0aaf 53bd 962f 343d c7f3 8f3d 044b bbbc
00000290: 783a 65bd 9f3e 9cbd 1329 40bd 55a4 8d3d
000002a0: f082 56bd e909 a3bd aabc 053d cc16 8ebd
000002b0: 000b b2b9 2118 883d 3a61 253d c09e f2bb
000002c0: 807a 87ba 7997 7dbd 98b3 f93c b4c9 ec3c
000002d0: 0c14 dd3c 9851 65bc 5b75 903d 94f2 8fbd
000002e0: 8c4d 9b3c 41ca 0bbd f3aa 803d 71fa 47bd
000002f0: f05e 3bbc 35b1 a33d d214 213d ad69 86bd
00000300: 80aa 093b 0044 133a ab3b 1dbd 5eb3 6b3d
00000310: 6800 bbbc 9259 6a3d 9d6b ac3d a453 983c
00000320: d162 1ebd 579e 02bd 5c3f bfbc 3df0 923d
00000330: 8959 b13d 2ca7 bf3c 69a9 b2bd e2c0 493d
00000340: d362 923d 87c0 8d3d cf7e b3bd cb6b a9bd
00000350: b9d6 a0bd 6189 84bd 229b 733d c041 363b
00000360: 5fe2 a63d d6bc 49bd f071 e2bb 1a42 2f3d
00000370: 8421 51bd e0d7 1abd 4a75 093d 27e4 873d
00000380: 96d8 233d 9274 1ebd 76c9 50bd 402d 4d3c
00000390: d0dd 373c 4633 eabc fd09 24bd be60 573d
000003a0: ae33 383d 208f 8abc 0894 b3bd 59f3 00bd
000003b0: dda6 a6bd c085 b23c b4c3 bfbc 6111 ad3d
000003c0: 78cf 8bbc b091 f43b e825 47bc d8db ca3c
000003d0: 7000 c83b dbaa 2cbd b0ca 08bd a5b4 22bd
000003e0: fd13 3fbd 3e36 21bd d466 a5bc 1173 80bd
000003f0: 1ce1 a23c d820 453c 40fe 83bb c026 38bc
