src/demo/mlp.onnx (onnx, 1209 bytes, 4 tensors)

linear1.bias f4 [20]
000000 90 5c 18 bd 3a 35 94 3e 48 53 86 bd 32 59 d3 3e
       -0.03719765 0.2894686 -0.065588534 0.41278988
000010 b0 b4 37 3d c0 0d d2 bb d8 af 77 be 68 c1 82 3e
       0.04485005 -0.0064103305 -0.24188173 0.25538182
000020 5c 24 c8 be 22 31 15 be 64 a5 8d be 70 2c 0b bd
       -0.3909024 -0.14569524 -0.27665246 -0.033977926
000030 c0 35 ac 3d 40 60 1b 3c c0 65 ab bd 6e 8e b7 be
       0.084086895 0.009483397 -0.08369017 -0.35850853
000040 8a 1b dc 3e de 6e e1 be ee 23 92 3e 50 eb 8a bd
       0.4298976 -0.44029897 0.28543037 -0.067831635

linear1.weight f4 [20, 5]
000000 f0 06 ea bd 00 e8 9c bd e6 bf 27 be 34 04 e0 be
       -0.114271045 -0.07661438 -0.16381797 -0.43753207
000010 b0 94 c6 3e 38 08 10 be a4 3a d2 bd 82 17 40 be
       0.38785315 -0.14065635 -0.10265091 -0.18758968
000020 f0 29 b2 3e 04 37 1a 3e e0 ba 0d 3d b2 be 1f be
       0.3479762 0.1506005 0.034602046 -0.15600088
000030 f4 56 2e be 88 bc c0 be d0 59 ca be 58 97 51 3d
       -0.17025357 -0.37643838 -0.39521646 0.051169723
000040 20 71 00 3c a0 38 b7 3e 60 cc 49 bc a3 b5 dc be
       0.007839471 0.3578539 -0.012316793 -0.43107328
000050 40 57 9c 3d f0 59 3f bd 86 92 c0 3e bc a7 d3 be
       0.07633829 -0.04671663 0.3761179 -0.4133891
000060 d4 44 0c 3e 8f 17 c5 be 70 b0 d1 3e 3c 2f 22 3e
       0.13698131 -0.38494536 0.40954924 0.15838331
000070 4c e5 47 3e 10 77 c9 be d0 06 e2 3c f7 a5 8d be
       0.19521064 -0.3934865 0.02759114 -0.27665684
000080 5f 73 6e be c8 7c 8c 3e 30 87 1e 3e 1a 72 ae 3e
       -0.23286198 0.2743895 0.15481257 0.34071428
000090 94 fe 93 be d4 36 e4 3e 84 eb 9e bd 7c 17 61 3e
       -0.28905165 0.4457308 -0.07759765 0.21981615
0000a0 d0 88 a0 3d a0 55 e8 bc d8 de e2 3d 00 41 d7 be
       0.07838595 -0.028361142 0.1107766 -0.4204178
0000b0 de 0d 85 be 60 1f bf bc 50 d4 56 3d b4 bb 9a 3e
       -0.25987142 -0.02333039 0.05244857 0.3022133
0000c0 9d 90 83 be c8 0b 03 3d 48 b1 db 3e e2 a7 c0 3e
       -0.2569627 0.031993657 0.42908692 0.37628084
0000d0 88 f8 1d bd 14 b5 b3 be a7 b9 df be 44 9e 3b be
       -0.038567096 -0.3509909 -0.4369633 -0.18322092
0000e0 a8 15 8f be b0 7c 2f be a0 07 0a 3e 6c 1c 7b 3e
       -0.2794621 -0.17137408 0.13479471 0.24522561
0000f0 30 7c ca bc c8 e1 72 bd c0 a0 83 3c c1 a5 b6 be
       -0.02471742 -0.059297353 0.016067863 -0.35673335
000100 82 79 13 be 22 fe c8 3e 58 7d d0 bd cc ce 67 3e
       -0.1440182 0.39256388 -0.101801574 0.2263748
000110 b0 32 fb bd 00 9b 8b 3d de e9 cd 3e 02 20 7e be
       -0.12265527 0.06816673 0.4021749 -0.24816898
000120 20 05 86 3d c8 3d 08 3d 23 df 9c be 50 91 0a bd
       0.06543946 0.033262044 -0.3063899 -0.033829987
000130 aa 41 b2 3e d6 bb d5 be b4 8d c4 3e b0 76 8e 3d
       0.34815723 -0.4174487 0.3838936 0.069562316
000140 60 05 06 bd 9e 14 98 3e ea cb aa 3e 92 22 36 be
       -0.03271997 0.2970323 0.333587 -0.17786625
000150 40 85 82 3d ee 6d 95 be f8 65 41 bd 44 69 10 3e
       0.06373072 -0.29185432 -0.047216386 0.14102656
000160 b8 cd 3a bd b0 ed fc bc 62 93 94 be f1 2a d6 be
       -0.045606345 -0.030875057 -0.29018694 -0.41829637
000170 dc 76 2b 3e e0 b6 d8 3d 68 55 4f 3e 9a 1b 9c be
       0.1674456 0.10581756 0.20247424 -0.30489808
000180 34 4d 55 3e 98 1d e4 3e 10 cb 1f bd 3c d1 06 3e
       0.20830232 0.44553828 -0.039012015 0.13165754

linear2.bias f4 [4]
000000 45 9b 58 be 64 30 16 3e e8 fc 89 bc f3 01 11 be
       -0.2115298 0.14666897 -0.016844228 -0.141609

linear2.weight f4 [4, 20]
000000 20 5b a2 bc b8 1e 05 be 4e 4b 3e be 04 7c 31 be
       -0.019818842 -0.13 -0.18583414 -0.17332464
000010 88 47 5c 3e 88 0c d2 3d 36 56 31 be 5e 58 61 be
       0.21511662 0.102562964 -0.17318043 -0.22006366
000020 26 62 bd bd e0 9c a8 bc cb 46 30 be 40 2a 2e bb
       -0.09247236 -0.020582616 -0.17214505 -0.0026575476
000030 e6 db 54 be b0 5e db bc 40 73 fb 3d 43 64 39 be
       -0.2078701 -0.026778549 0.122778416 -0.18104653
000040 10 96 12 be d0 8e 32 3c 76 da 62 3e 10 66 03 3c
       -0.14315057 0.010898307 0.22153649 0.008019939
000050 b4 06 a1 3d 80 b2 76 3d a0 7b bf bd b8 66 0f 3d
       0.07862607 0.060228825 -0.093497515 0.03501007
000060 cc e7 ce 3d 30 dc 90 bc ac 95 2f 3e b0 1b e6 3c
       0.101028055 -0.017683119 0.17146939 0.028089374
000070 10 01 1f 3c 6f 65 de bd f8 2b 99 3c a0 6f bf 3c
       0.009704843 -0.10859191 0.018697724 0.023368657
000080 ca a8 02 3e 00 12 08 ba 50 ec 59 3c 94 6a 35 3e
       0.127597 -0.00051906705 0.01330097 0.17716438
000090 4a 74 11 3e 40 bd 19 3e a9 e5 5a be e8 95 c1 bc
       0.14204517 0.150136 -0.21376671 -0.023631051
0000a0 60 9a a0 3d 48 bd b9 3d f4 af 62 be f2 bb 4d be
       0.07841945 0.09069306 -0.22137433 -0.20091227
0000b0 58 8d 44 3e c0 8c 0e bc 30 d7 2b bc 6e 7f 4d 3e
       0.19194543 -0.00870055 -0.010488316 0.20068142
0000c0 4c c6 ec 3d 58 bc 72 3d 3e 7e 32 3e 78 bb 3d be
       0.115612596 0.05926165 0.1743097 -0.18528545
0000d0 b0 92 44 3e f0 67 6e bc 1a ce 15 3e 0e c4 a5 bd
       0.19196582 -0.014551148 0.14629403 -0.08094035
0000e0 fc 3e 24 be a3 7d 36 be 5c 31 41 be d8 ee 08 3e
       -0.16039652 -0.17821364 -0.18866485 0.13372362
0000f0 68 0c a5 3d ec 48 85 3d 6a e6 56 be 1c a0 e9 3d
       0.08059007 0.06508049 -0.20986333 0.114074916
000100 76 e4 a9 bd 71 b8 e9 bd a4 06 bc 3d ba ea 5a be
       -0.082955286 -0.114121325 0.09180954 -0.21378604
000110 78 8a 88 3d 76 f9 08 be 9c 21 9e 3d 7c 65 4f 3e
       0.06667036 -0.13376412 0.07721254 0.20253557
000120 50 a5 7b bc de 9e 2b 3e ec c0 15 be f0 71 46 3d
       -0.015359238 0.16759822 -0.14624375 0.048448503
000130 20 78 ec 3c b3 41 e5 bd 00 d5 ee 3b 12 b8 50 3e
       0.028865874 -0.11194172 0.007288575 0.20382717
