test/PosterDemo/MidDemo/miso.onnx (onnx, 4058 bytes, 4 tensors)

linear_x.bias f4 [3]
000000 45 14 85 3d e1 17 82 3d 39 7e 81 3d
       0.06498007 0.06352211 0.06322903

linear_x.weight f4 [3, 100]
000000 26 60 42 3d 38 9c dd bc 8f 9c bb bd 7e af 23 3d
       0.047454976 -0.02705203 -0.091607206 0.039962284
000010 93 6e 31 bd b4 7e 0e bd 31 ad 9d 3d a6 ba 3b 3d
       -0.043318342 -0.034788802 0.07699049 0.0458323
000020 60 a5 36 bb ba 22 6c bd 76 e4 4d 3d 20 95 ba 3c
       -0.0027869567 -0.057650305 0.050266705 0.022776186
000030 00 3d c5 b9 0a 6e 0e 3d 8f f0 8d 3d b6 c0 17 bd
       -0.00037620217 0.03477291 0.069306485 -0.037049018
000040 49 22 81 3d 08 84 81 3c 6c 03 df bc 9a 26 0e 3d
       0.063053675 0.015810028 -0.027223311 0.034704782
000050 6c 9d e3 bc 96 c6 12 3d 80 36 85 3b 80 f5 b5 3a
       -0.027785026 0.035833918 0.004065335 0.0013882369
000060 f1 d8 c8 3d 0f 04 b0 bd 07 d4 34 bd a2 c9 59 3d
       0.09807003 -0.08594524 -0.044147518 0.053170808
000070 b0 0e 18 3c 36 81 0b 3d c3 9a 9d 3d 3e bb 3b 3d
       0.0092808455 0.034058772 0.07695534 0.045832865
000080 ad c2 9b 3d 35 e2 c5 3d ed b3 8b bd 4c c8 f9 bc
       0.07605491 0.09662286 -0.068214275 -0.030491017
000090 97 75 7b bd a0 0f b3 3b b1 11 b4 3d 99 03 b8 3d
       -0.06139144 0.005464509 0.08792437 0.08985061
0000a0 28 14 f4 bc e1 f9 be 3d d2 ef 87 bd 0e 1d 51 3d
       -0.029794767 0.09325004 -0.06637539 0.0510531
0000b0 00 f0 d2 ba 59 54 b4 3d 73 f8 8d 3d 2a a6 ae bd
       -0.0016093254 0.088051505 0.069321536 -0.08527787
0000c0 2d 0d 91 bd a9 87 cb 3d c8 b2 cb 3c 72 0c 67 3d
       -0.07082591 0.099379845 0.024865523 0.056408353
0000d0 27 dd 2b bd fd 8f 48 bd b0 0b 7d bd f2 5b aa bd
       -0.041958954 -0.048965443 -0.061778724 -0.083183184
0000e0 03 52 9a 3d 43 bb 75 bd 7a 6f a8 bd c0 0e 03 bd
       0.07535174 -0.05999304 -0.082243875 -0.03199649
0000f0 f5 96 95 3d da a4 1d bd fc 56 f5 3c 45 93 88 bd
       0.073041834 -0.038487293 0.029948704 -0.066687144
000100 56 29 36 3d 39 6c b6 3d 18 33 55 bc 2a 0d a8 bd
       0.044473015 0.089073606 -0.01301267 -0.08205636
000110 0a 3c 27 3d 21 93 9d 3d 50 cd 13 3c 00 fa 56 bc
       0.040828742 0.07694078 0.009021118 -0.013121128
000120 a0 7c 8a 3b 32 e3 6c 3d 5a 23 c0 bd 34 2a b7 bc
       0.0042262822 0.057833858 -0.09381743 -0.022358991
000130 e7 31 79 bd c5 76 a1 3d 12 3f 6a 3d 0c 2a d2 3c
       -0.060838606 0.078839816 0.057189055 0.025654815
000140 38 4a 83 3c e0 6a a2 3c b7 ac 3e bd 75 51 b3 bd
       0.016026601 0.019826353 -0.046551432 -0.08755771
000150 2c 16 d0 bc 00 00 d1 bc 70 14 6c bd 36 d4 7d 3d
       -0.025401197 -0.025512695 -0.05763668 0.06196996
000160 00 de da b9 91 70 c1 3d c4 68 d5 3c cd 73 24 bd
       -0.00041745603 0.094452985 0.026050933 -0.0401495
000170 d8 0f 92 3c 14 a0 eb 3c 38 10 87 bd 69 24 8b 3d
       0.01782982 0.028762855 -0.0659489 0.06794054
000180 ee 71 5e 3d ca 91 20 3d f4 16 aa 3c a8 ab c1 bc
       0.05430787 0.039201535 0.020762898 -0.023641422
000190 92 84 69 3d e8 11 b0 3c 88 de dd bc ea ca 37 bd
       0.057011195 0.021492913 -0.02708365 -0.04487125
0001a0 80 04 56 bc 10 49 5c bc 3d c8 ba bd b0 dc 69 bc
       -0.013062596 -0.013445154 -0.09120224 -0.014273807
0001b0 d3 e8 be 3d 00 5d cc 3c 4d dd 98 bd 00 66 a3 39
       0.093217514 0.02494669 -0.07464085 0.0003116578
0001c0 c4 65 0e bd 70 f1 07 bd 6a ec 54 3d 30 56 19 bc
       -0.03476502 -0.033189237 0.051983275 -0.009358928
0001d0 f0 ea aa bd 9f 48 cc 3d f6 15 4c 3d fe fd 33 3d
       -0.08345592 0.09974789 0.04982563 0.043943398
0001e0 43 ed 48 bd f4 63 a5 3c ea 07 23 3d a7 70 21 bd
       -0.049054395 0.020189263 0.03980247 -0.039414074
0001f0 94 ca 8c bc 38 fc 9d 3c 30 fd 5e bc 8c c4 eb bc
       -0.01718644 0.019285306 -0.013610169 -0.028780244
000200 aa be 1e 3d 88 bf 91 bd 45 75 c0 3d b0 fb 64 bc
       0.03875605 -0.0711661 0.093973674 -0.013976023
000210 1a d3 43 3d 92 6e 20 3d 12 9d 13 3d 13 95 56 bd
       0.047808744 0.039167948 0.036038466 -0.052388262
000220 60 a5 5e bd 81 1d 83 3d f4 78 f1 bc 66 a6 7f 3d
       -0.054356933 0.06402112 -0.02947662 0.06241455
000230 80 76 0b ba 87 cb 3c bd 39 db 8c 3d 9a b2 0d 3d
       -0.0005320087 -0.046092536 0.06877751 0.034594156
000240 65 1b a7 bd 86 00 00 bd 76 fc a4 bd 8c 88 f9 3c
       -0.08159522 -0.0312505 -0.080559656 0.030460618
000250 63 da ab 3d 9d ec 23 bd c3 cc a3 3d 88 6a bb bd
       0.08391263 -0.040020574 0.079980396 -0.091511786
000260 55 8b a0 3d 6c ac 83 bd 96 33 9f bd fa 73 8b bd
       0.078390755 -0.06429371 -0.07773511 -0.0680923
000270 25 83 8f 3d a8 f8 74 bc ee ba 72 3d d0 3d 12 bc
       0.07007436 -0.014951862 0.0592603 -0.00892587
000280 c9 95 9e 3d e8 2a aa bc b5 5d 9b bd ce 5a 4c 3d
       0.07743413 -0.020772412 -0.075862326 0.049891286
000290 e3 59 ae bd b4 cb e2 3c 5d 94 6b bd e8 23 3e bc
       -0.08513238 0.027685024 -0.057514537 -0.01160524
0002a0 0e 8a 37 3d 18 23 cb bc 38 ed c6 bc 50 42 58 3c
       0.044809394 -0.024797007 -0.024283037 0.013199404
0002b0 09 bb 98 3d 9e 48 06 3d f3 c5 84 3d 41 4d b3 3d
       0.07457549 0.032784097 0.06483068 0.087549694
0002c0 77 d0 ac bd 14 fe dd bc f0 b3 4c 3c 30 21 29 bc
       -0.08438199 -0.027098693 0.012494072 -0.010322854
0002d0 99 d2 81 3d 54 39 9f bc 8c 27 cb 3c 0f 26 af 3d
       0.063389964 -0.019436516 0.02479913 0.08552181
0002e0 71 76 bc 3d 41 7c 8e 3d 7b 3d 92 bd 5a cc 17 3d
       0.092022784 0.06957293 -0.07140633 0.03706012
0002f0 8e 53 34 3d 10 a6 68 bd 49 4d b8 3d 3a 55 59 3d
       0.044024996 -0.056798995 0.08999116 0.053059794
000300 20 d2 59 bd 78 72 c2 bd f5 99 8f 3d 68 6c 32 3c
       -0.053178906 -0.094944894 0.07011787 0.010890104
000310 e8 a0 c5 bc 89 5a 84 3d 80 01 a9 3c 7a 72 20 3d
       -0.024124578 0.06462581 0.020630598 0.039171673
000320 f9 cf 80 3d 40 58 5f 3c f0 af 79 bd ea 15 a8 bd
       0.06289668 0.01363188 -0.060958803 -0.08207305
000330 87 04 47 bd b2 59 4c 3d da 9d b0 bd 7a 33 10 3d
       -0.048588302 0.049890228 -0.08623858 0.035205342
000340 7c 9e ed 3c 27 d2 a8 3d 29 dd 8d 3d 54 c5 86 3c
       0.029006235 0.082432084 0.069269486 0.016451515
000350 54 e1 de 3c cc 62 b7 bc e1 25 c4 3d c0 bc 45 bc
       0.027207054 -0.022385977 0.09577537 -0.012068927
000360 d0 a6 3a bd 3b 14 bc 3d 00 4f ef 3b 09 20 c8 3d
       -0.04556924 0.09183546 0.0073031187 0.09771735
000370 fa b4 31 3d 8f 80 87 3d 4e 2c 1f 3d 84 6e fc 3c
       0.043385483 0.066163175 0.03886061 0.030814417
000380 d1 3c a7 3d 7e c4 a8 bd e0 1c 88 bb 47 8c 65 bd
       0.08165897 -0.08240603 -0.004153833 -0.056041982
000390 c8 52 b8 bc 72 c4 50 3d 96 43 77 3d 2e 25 7b 3d
       -0.02250041 0.050968595 0.06036719 0.061314754
0003a0 0a 29 9b bd 8e 5a 22 3d 80 d5 a9 bd 9a d8 2a bd
       -0.07576187 0.03963714 -0.08292675 -0.041710474
0003b0 23 22 c5 bd aa f5 5a 3d a3 01 2e bd f5 3f 87 3d
       -0.09625652 0.05345694 -0.04248203 0.06603996
0003c0 35 d4 8c 3d 38 35 a4 bc 63 3b 23 bd e2 6e 7f 3d
       0.06876413 -0.020044908 -0.039851557 0.062361605
0003d0 3c bd d2 3c 1a 47 3a 3d 2c bb e6 bc 51 34 84 3d
       0.025725 0.045477964 -0.028165422 0.06455291
0003e0 80 9b a4 3a 60 ef 1e bd 48 05 9a bc b2 45 55 3d
       0.001255855 -0.038802505 -0.018801346 0.05206842
0003f0 18 11 bd 3c 2b 22 b9 bd 00 06 22 39 38 0b e7 bc
       0.02307944 -0.0903972 0.00015451759 -0.028203592

linear_y.bias f4 [3]
000000 70 f2 23 bc b0 69 af 3b d3 52 1e bd
       -0.010006532 0.005353175 -0.038653206

linear_y.weight f4 [3, 200]
000000 d7 1a 73 bd 80 37 d3 ba ee 17 79 3d ec 7b 28 3d
       -0.05935177 -0.0016114563 0.060813837 0.041133806
000010 a4 6c 21 3d 89 bd 8e bd 11 dd 19 bd 00 61 dc 39
       0.03941025 -0.06969745 -0.03756434 0.0004203394
000020 d0 35 04 bc 1d c3 68 bd 8b e2 11 bd 32 26 21 bd
       -0.0080694705 -0.0568267 -0.03561644 -0.039343067
000030 b5 26 01 bd 50 cd 04 3c 10 ef e6 3b 28 7f 19 3d
       -0.031531055 0.008105591 0.0070475414 0.03747478
000040 c8 61 0c bc 44 87 8e bd ba d9 62 bd 94 a7 8e 3c
       -0.008568235 -0.069593936 -0.05538342 0.017413892
000050 96 25 84 bd 2a 2b 0e 3d 22 d7 65 3d 1c 37 e1 3c
       -0.064524814 0.034709133 0.05611337 0.027492099
000060 40 7a f0 3a ae 50 81 bd 18 42 f7 3c 40 97 a4 3b
       0.001834698 -0.063142166 0.030182883 0.005022913
000070 62 1c 7f 3d 40 0a 0f bd c4 ab ba bc a0 bc a2 3c
       0.062282927 -0.034921885 -0.022786982 0.019865334
000080 00 08 7b b9 01 78 0f bd 2c 1b 14 3d 8e ac 4b bd
       -0.00023940206 -0.035026554 0.036158726 -0.049725108
000090 dc f9 3d bd 82 25 30 3d b2 95 33 3d a0 fd 3b bd
       -0.046380863 0.04300452 0.043843932 -0.045896173
0000a0 58 ec 25 3c 20 37 ed 3c 22 66 3a bd 85 87 0b bd
       0.0101271495 0.02895695 -0.045507558 -0.03406479
0000b0 e0 8d b1 3b 1e bb 01 3d d8 ff ce 3c b2 80 66 3d
       0.005418524 0.03167259 0.02526848 0.056275077
0000c0 20 30 06 3b 4a 0c 3e 3d 4a 74 75 3d 9b 0b 87 3d
       0.0020475462 0.04639844 0.059925355 0.065940104
0000d0 87 1f 38 bd 0b 0c 89 3d e6 ee 2b bd 30 44 01 3c
       -0.04495194 0.0669175 -0.04197588 0.007889792
0000e0 de eb 51 3d cc 87 50 3d 98 20 4e 3c 31 0a 8f 3d
       0.05125033 0.050910756 0.012581013 0.06984366
0000f0 5e 67 8a bd e8 49 6f bc e6 b3 d9 bc aa d5 13 3d
       -0.06757997 -0.014605023 -0.02657504 0.036092438
000100 7c 7d 8a bd e8 14 48 3c 13 68 70 bd dc 2e 88 bc
       -0.067622155 0.012212016 -0.058693003 -0.016623907
000110 9c 6d fe 3c 9c 0d 3b 3d 7c 19 23 bc 94 b5 da 3c
       0.031058125 0.045667276 -0.009954806 0.026697911
000120 80 ac 7e 3a 24 1f 3a 3d 1c 54 b5 bc 8c 48 6a bc
       0.00097150356 0.045439854 -0.022134833 -0.014299523
000130 e6 62 81 bd 80 b1 bf bb 88 95 d5 bc 9e d3 01 3d
       -0.063176915 -0.005850017 -0.026072279 0.031695955
000140 ee 76 3d bd 3e 86 ec bc 64 fc 17 3d a6 18 6f 3d
       -0.046256 -0.028872605 0.037105933 0.058373116
000150 00 22 9a bb 90 68 e2 3b d7 2d 8b 3d ee 6b 67 3d
       -0.00470376 0.0069094375 0.06795853 0.056499414
000160 e0 5c 84 3c 42 a1 9b bc ec 81 2f 3d 72 77 71 3d
       0.016157568 -0.018997792 0.042848513 0.058951803
000170 f3 77 68 bd 2c c4 98 bc 1a a6 81 bd 89 82 7f bd
       -0.056755017 -0.01864823 -0.063305095 -0.062380347
000180 d0 cc 08 bc a0 01 45 3c a0 78 4b 3c f6 69 40 3d
       -0.008349612 0.012024313 0.012418896 0.046976052
000190 c9 2f 83 3d 68 2f bc 3c c4 db 96 3c 40 72 4c 3d
       0.06405599 0.022971824 0.01841534 0.049913645
0001a0 eb 12 1e bd a8 8c 1d 3d ca 25 63 3d dc 52 eb 3c
       -0.03859226 0.03846422 0.05545596 0.028726034
0001b0 0d ba 90 3d 60 4d ba 3c 6a ec e0 bc 6c 78 b4 3c
       0.07066736 0.022741973 -0.027456481 0.022030078
0001c0 ec 24 28 bd 2c fa a4 3c 90 a8 96 3c 35 55 89 3d
       -0.041050836 0.020138822 0.018390924 0.06705705
0001d0 78 2e 13 bd 48 a1 4d bc f4 00 17 3d 42 18 57 bd
       -0.035932988 -0.0125506595 0.036866143 -0.05251337
0001e0 16 e8 29 bd 58 f7 47 3c 3d c8 4a bd 20 f4 57 3c
       -0.0414811 0.012204967 -0.04950737 0.0131807625
0001f0 6c 62 0f 3d 40 1f 3d 3d 64 7c 48 bd 78 5c 73 bd
       0.03500597 0.04617238 -0.048946753 -0.059414357
000200 79 db 8b 3d c0 cf a2 3b d0 c4 6e 3c f1 4f 85 bd
       0.068289705 0.0049686134 0.014573291 -0.06509388
000210 1a 13 fc bc 8e ee f4 bc 60 c5 b6 3b bf e2 2a bd
       -0.030770827 -0.029898908 0.005577728 -0.04172015
000220 9c c3 22 3d b8 fb ce bc cc df 5b bd 18 ec 34 bc
       0.03973733 -0.025266513 -0.053680226 -0.011042617
000230 80 e3 5d 3b b0 57 3a bc 80 6b 85 bd ca 24 22 bd
       0.0033857524 -0.011373445 -0.065146446 -0.039585866
000240 21 5f 3d bd 00 aa d7 b9 00 8a 6a 3a ff b1 59 bd
       -0.0462333 -0.00041134655 0.0008946955 -0.053148266
000250 5c ff 31 3d f8 d3 89 bd 02 1b 6e 3d b4 28 70 bc
       0.04345642 -0.06729883 0.058131225 -0.014658142
000260 e0 78 47 3b 20 b3 b0 bc 66 86 4c bd 2c 69 5c bc
       0.0030437037 -0.021569788 -0.04993286 -0.013452809
000270 e0 8a 40 3b 8b 1d 8c 3d 7f 59 0b bd 00 20 64 3b
       0.002937965 0.068415724 -0.034020897 0.0034809113
000280 a8 54 62 3c 90 46 b4 3c 3d b3 10 bd 08 9a 9a 3c
       0.013814129 0.022006303 -0.035327185 0.018872276
000290 d0 b2 0d 3c 0d c1 86 3d b8 15 bf bc 84 29 bf 3c
       0.008648589 0.0657979 -0.023325786 0.023335226
0002a0 1a 73 71 3d e0 62 fb 3b 8a 65 1c 3d a0 5d 5e 3c
       0.05894766 0.007671699 0.038182773 0.013572127
0002b0 ba 70 82 bc f0 21 00 3d 80 f4 e9 bb d4 9a b5 3c
       -0.015922893 0.031282365 -0.0071397424 0.022168554
0002c0 89 a4 86 3d 30 2a bb 3c f6 d9 84 bc e0 a4 9c bb
       0.06574351 0.022847265 -0.016217213 -0.004780397
0002d0 66 3f 67 3d 5e 22 7d 3d e6 b4 75 3d 90 1d 2d 3d
       0.056456946 0.061800353 0.05998697 0.04226452
0002e0 64 94 2e 3d f4 80 8a bc db 89 8f 3d 36 cc 98 bc
       0.042621985 -0.016907193 0.07008716 -0.018652063
0002f0 c6 5e 36 bd 24 f5 3a bd 54 d3 d5 3c 42 06 f7 bc
       -0.044523977 -0.04564394 0.026101746 -0.030154351
000300 28 3f 0d 3d 7d 13 19 bd 3f 8f 5e bd 18 cb 2e 3c
       0.03448406 -0.0373721 -0.05433583 0.0106685385
000310 c9 e2 80 bd 7c f7 1e bc ae b9 13 bd fe eb 1d bd
       -0.06293256 -0.00970256 -0.03606575 -0.038555138
000320 44 f7 c7 bc 00 4f e5 3a 30 e0 86 3b d2 b7 72 bd
       -0.024409898 0.0017494857 0.0041160807 -0.059257336
000330 78 b8 56 bd d6 be 25 3d 7c 1c 72 bd c7 9b 4c bd
       -0.052422017 0.0404652 -0.059109196 -0.04995325
000340 00 98 e0 ba 5b 99 0b bd f8 81 16 3c 1e 02 7f 3d
       -0.0017135143 -0.034081798 0.00918626 0.06225788
000350 ee de 69 3d 58 c7 90 bd 20 53 35 bd 94 81 5b bd
       0.057097368 -0.07069272 -0.044268727 -0.053590372
000360 5c 25 79 bd c4 f9 d3 3c c8 67 c6 3c 6b f2 89 bd
       -0.060826644 0.025875933 0.024219409 -0.06735691
000370 f8 45 00 3d b5 d9 89 bd e2 e0 5d bd a0 bb 01 3b
       0.031316727 -0.067309774 -0.054169543 0.001979567
000380 90 9f cf bb 0e 75 6d bd a0 bf 1b bc 2e bd a9 bc
       -0.00633616 -0.05797296 -0.009506136 -0.02072009
000390 b7 f1 17 bd 80 89 a7 bb f2 98 28 bd 89 4c 8a 3d
       -0.03709575 -0.005112827 -0.041161485 0.06752879
0003a0 ef ab 8a bd 9b 00 6a bd b4 a0 51 bd cc 76 9f 3c
       -0.06771075 -0.057129484 -0.05117865 0.019465826
0003b0 dc f5 9e 3c 88 22 83 bd 6c 83 0a 3d fb 09 8e bd
       0.019404344 -0.06403071 0.03381674 -0.069354974
0003c0 b4 ba 19 bd 40 2a d1 bc 3a 31 55 bd 8a 4b 65 3d
       -0.03753157 -0.025532842 -0.0520489 0.055980243
0003d0 40 57 e5 ba ba 25 73 3d ce b7 8a bd a3 17 88 3d
       -0.0017497316 0.05936215 -0.06773339 0.06645133
0003e0 54 50 92 3c 20 3e 6d bb ed 66 8e 3d 70 43 37 bc
       0.017860569 -0.003620036 0.06953225 -0.011185512
0003f0 96 38 5d 3d 98 cc 88 bd 02 10 fa bc 70 47 f0 3c
       0.054009043 -0.06679648 -0.030525211 0.029330939
