test/ONNX_files/mnist_mlp.onnx (onnx, 407451 bytes, 4 tensors)

fc1.bias f4 [128]
000000 1a 1f d2 bc ca 36 a7 3c 87 06 9a bc 03 77 01 3d
       -0.025649596 0.020411868 -0.01880194 0.03160764
000010 30 60 50 3c 26 09 6b bc 5f ee 0a 3d e2 5b a1 3c
       0.012718245 -0.014345443 0.033918735 0.019697133
000020 1a f0 e7 3c c5 87 02 bd 53 94 ce bc 40 c8 4d bc
       0.028312732 -0.03186776 -0.02521721 -0.01255995
000030 cc fc d4 3c 34 ea 7c bc 68 93 c0 3c a7 c5 08 bd
       0.02599945 -0.015436698 0.023507789 -0.03339162
000040 a5 ca 0a 3d 20 e1 28 3c e6 b6 cc 3c 00 3e cd b8
       0.033884663 0.01030758 0.024989557 -9.78671e-05
000050 a8 4e c9 3c 70 6e 29 bb 40 bf 59 bc 70 7a 4c 3b
       0.024573639 -0.002585318 -0.013290226 0.0031200908
000060 4e 2d 37 bc 26 c3 e3 3c 33 89 e3 bc aa 7b a8 3c
       -0.011180235 0.027803015 -0.027775383 0.02056678
000070 64 c2 d1 bb d4 11 ff bb f6 83 a7 3c 20 e8 b8 3c
       -0.006401347 -0.0077841077 0.020448666 0.022571623
000080 26 e5 33 bc e8 46 d1 bc ae 7b e2 bc bc 00 56 3c
       -0.010979926 -0.025546506 -0.027646866 0.0130616985
000090 c6 95 d4 3c 47 f7 a0 bc 80 2e 4f 3a b9 a2 01 3d
       0.025950324 -0.019649161 0.00079033524 0.031649325
0000a0 69 3d 12 3d 3c 32 ab 3c 41 d6 11 3d 00 87 93 39
       0.035703097 0.020897977 0.03560472 0.00028138608
0000b0 a6 b2 69 bc 00 4b 89 3b 20 9d 3c bc 60 0e bf 3a
       -0.0142637845 0.004189849 -0.011512071 0.0014576428
0000c0 4e 98 8d bc 40 0d 64 3a 4a 82 37 bc 00 63 27 bc
       -0.017284539 0.0008699484 -0.011200497 -0.0102164745
0000d0 46 18 f2 3c cc c7 88 3c c7 82 0c 3d 68 02 cb 3b
       0.02955259 0.016696833 0.034304406 0.006195355
0000e0 50 61 06 bb a6 90 db 3c 98 dc da bc b8 22 f0 bb
       -0.002050478 0.026802372 -0.026716515 -0.0073283575
0000f0 b0 65 38 3c 90 40 1a 3c 8a ac 10 bc 91 9e fc bc
       0.011254713 0.009414807 -0.008830199 -0.03083733
000100 36 5f dd 3c 47 7c 09 3d e0 74 73 3c 00 a3 a4 3c
       0.02702294 0.033565786 0.014859408 0.020097256
000110 dc 1e d1 bc 48 63 81 3c f0 b2 f6 3b da 51 d0 3c
       -0.02552741 0.015794411 0.007528655 0.025429655
000120 6f f5 02 3d 72 d9 d0 3c 90 b5 6f 3c 0c fc 07 bd
       0.031972345 0.025494311 0.01463069 -0.033199355
000130 40 de 6d ba c6 00 dd 3c 16 92 dc 3c 1e 1e fc 3c
       -0.00090739504 0.026977908 0.026925128 0.03077608
000140 ee 28 b3 bc a0 9c 87 3a 78 58 53 3c 0c aa b2 bc
       -0.021870103 0.001034636 0.012899511 -0.0218096
000150 30 f3 29 3c 41 ef 04 3d 20 d0 a7 3a 2c f8 b3 bc
       0.010372922 0.032454733 0.0012803115 -0.021968924
000160 9f c5 07 3d f2 eb 26 bc 4a ad 13 bc c6 8b 9b 3c
       0.03314745 -0.01018809 -0.009013483 0.018987548
000170 3a a9 a0 bc 8a 66 6e bc 69 f0 0c 3d 10 c9 cd 3c
       -0.019611944 -0.014550814 0.03440896 0.025120288
000180 d0 f3 2d bb 92 3b 0a bd a0 43 af 3c 60 25 8c 3c
       -0.0026543029 -0.033748217 0.02139455 0.017107666
000190 18 66 7c 3c 90 14 8e bb 08 f8 cb 3b a0 de a6 3c
       0.0154052 -0.0043359473 0.006224636 0.020369828
0001a0 34 d4 22 3c e6 b2 f4 3c c7 b0 06 3d 70 33 b6 bc
       0.0099382885 0.029870462 0.03288343 -0.022241324
0001b0 de b0 ed 3c aa 67 68 bc e0 76 c6 3b 60 4f 3b bb
       0.029015 -0.014184872 0.0060566515 -0.0028581247
0001c0 c0 c7 ec 3a af ed 0a 3d c4 50 47 3c ce de a6 3c
       0.0018064901 0.03391808 0.012165252 0.020369913
0001d0 00 c0 5b b6 60 74 0b bb 13 97 a5 bc 28 9f 86 3b
       -3.2745302e-06 -0.0021279082 -0.02021364 0.0041083284
0001e0 b8 ab 83 3c 42 2c 9b 3c a6 cb df 3c d3 bf 00 bd
       0.016073093 0.018942002 0.027318787 -0.031432938
0001f0 5a d8 c1 bc 08 ae fb bc f0 77 1d 3c 02 04 df 3c
       -0.023662735 -0.030722633 0.009611115 0.02722359

fc1.weight f4 [128, 784]
000000 30 26 1d bb a0 c4 04 3c 3c fd 38 3c 22 5f 8e 3c
       -0.002397906 0.00810352 0.0112908445 0.017379347
000010 c2 5e de 3c c8 ad 89 bb c5 9d e9 bc f4 28 11 bd
       0.027144793 -0.0042016245 -0.028517613 -0.035439447
000020 60 61 11 bb a0 d0 fe 3a a0 ec fc ba da 85 96 3c
       -0.0022183284 0.0019440837 -0.0019296594 0.018374372
000030 78 1b b7 bc 2d 1c 03 bd 58 ae 2f bc c8 2d dd bb
       -0.022351965 -0.032009292 -0.010722719 -0.0067498423
000040 f1 af 0c 3d 8c 8b 83 3c 10 69 6c 3c a4 5a 7e 3c
       0.03434748 0.016057752 0.014429346 0.01552454
000050 30 bf 7d 3b 40 7a d8 bc 9a 67 f8 bc da ec b8 bc
       0.0038718693 -0.02642548 -0.030322839 -0.022573877
000060 94 d4 00 bd d5 65 cb bc d5 ac ed bc 8c 5f 80 3c
       -0.03145273 -0.02482883 -0.029013077 0.01567056
000070 40 f5 4c 3a 4c 00 97 bc a0 3d 30 bb 40 15 68 ba
       0.00078185275 -0.018432759 -0.00268922 -0.0008853264
000080 a6 5e 06 bd 18 86 48 bc 80 65 b9 39 ae e4 f6 3c
       -0.032805108 -0.012239002 0.00035361573 0.03013834
000090 5c a5 b9 bc 83 b1 ac bc 18 00 b2 3c 27 85 94 bc
       -0.022661857 -0.021080738 0.02172856 -0.018129898
0000a0 c8 a9 0c bd 4a 35 02 bd 78 d8 cf 3b 5c 01 1f 3c
       -0.034341604 -0.0317891 0.0063429438 0.009704914
0000b0 d2 45 ae 3c 20 60 a0 bc 41 8a 0c 3d 6a 11 d6 3c
       0.021273527 -0.019577086 0.034311537 0.02613135
0000c0 a0 e2 c7 3c b5 15 e7 bc 8a ba d8 bc a3 7e f4 bc
       0.024400055 -0.028208593 -0.026456136 -0.029845541
0000d0 a8 c7 15 3c f0 1b 71 bb 5a 14 05 bd aa 23 a8 3c
       0.00914184 -0.0036790334 -0.032490112 0.020524818
0000e0 1e ee 98 3c 37 57 0b 3d 4a b3 b2 bc b0 b7 9e 3b
       0.01866823 0.03401872 -0.021814007 0.0048436746
0000f0 70 7d 58 bb 4c 38 b2 bc 58 13 bf 3c 20 fc a0 3a
       -0.003303375 -0.02175536 0.023324654 0.001228217
000100 c8 0d 67 3c e0 56 90 3a 80 82 a1 bc 21 12 f6 bc
       0.014102407 0.0011012219 -0.019715548 -0.030037941
000110 28 73 b2 3c 83 3b 05 3d b2 a3 38 bc 6e 81 8b bc
       0.021783426 0.032527458 -0.011269497 -0.01702949
000120 84 41 02 bc 7c 94 96 3c 63 93 80 bc d8 66 21 bc
       -0.00795019 0.01838135 -0.01569528 -0.00985118
000130 f7 e3 11 3d e0 67 d2 ba 6a bf a1 bc 48 77 b0 3c
       0.035617795 -0.0016052686 -0.019744594 0.021541253
000140 40 49 85 bb 5e e3 b7 3c 5e 69 85 3c b0 e0 41 3c
       -0.00406757 0.022447284 0.016285595 0.011833355
000150 bc db 8c bc a8 d5 95 3c c0 ea 80 bb ba 48 c1 bc
       -0.017194621 0.018290356 -0.0039342344 -0.023594249
000160 14 b1 46 3c e8 de f4 3b ea 2a f6 bc 53 cd 0e 3d
       0.01212718 0.0074728616 -0.03004976 0.03486378
000170 bb 33 10 bd ee 74 e0 3c 88 e7 5b 3c 8b 3b 0d bd
       -0.035205584 0.027399506 0.013421901 -0.034480613
000180 60 24 42 bb b8 4a cc bc bc 56 05 bd 92 75 eb 3c
       -0.0029623732 -0.024937972 -0.03255342 0.028742585
000190 a8 d0 f7 bc 59 21 08 3d a0 fd c7 3b 60 c2 ea 3a
       -0.030250862 0.033234928 0.0061032325 0.0017910711
0001a0 32 61 31 bc c3 3b 03 3d 51 85 0c 3d 48 bf e4 bb
       -0.010826396 0.032039415 0.034306828 -0.0069808103
0001b0 46 86 1f bc 04 3c 13 3c 5a d2 ee bc 68 6e 81 3b
       -0.009736603 0.008986477 -0.029153038 0.003949929
0001c0 5c ad 3f 3c c4 9e 00 bd 0c 5b 84 bc b0 08 bd bb
       0.011699047 -0.03140141 -0.016156696 -0.005768858
0001d0 e8 65 db 3c a1 b5 07 3d 47 b9 01 3d 00 5f c0 3c
       0.026781991 0.0331322 0.031670835 0.0234828
0001e0 50 f0 31 bb 88 89 d3 bc 63 50 f1 bc 83 fa d2 bc
       -0.0027151294 -0.025822416 -0.029457277 -0.025754219
0001f0 d7 b2 95 bc 88 56 0b 3c 81 d9 07 3d 6a ef b7 3c
       -0.018273754 0.008504517 0.033166412 0.022453029
000200 75 67 d8 bc ba 37 87 bc c7 ad 0b 3d d8 09 64 3c
       -0.02641652 -0.016506065 0.034101274 0.013918363
000210 8b d6 0b 3d 26 01 6c bc 38 ef 8d 3b 17 9b 05 3d
       0.03414015 -0.014404571 0.0043314956 0.03261861
000220 8e 09 79 bc 02 45 85 3c 5e e8 8d bc e1 65 05 3d
       -0.015200032 0.016268257 -0.017322715 0.032567862
000230 4e b2 c7 3c ba 2a f0 3c e0 05 01 3b 08 9f ee bb
       0.024377014 0.029317249 0.001968734 -0.0072821416
000240 e0 22 d5 3a d0 6c b7 bc 60 de dd bc 80 98 ee 3b
       0.0016261004 -0.022390753 -0.027083576 0.007281363
000250 50 f9 94 bc 00 a0 93 bb 92 aa da 3c 74 67 61 3c
       -0.018185288 -0.0045051575 0.026692662 0.013757575
000260 47 14 01 3d e5 f1 b3 bc 94 69 2d 3c 5a f0 a6 3c
       0.03151348 -0.02196593 0.010584254 0.02037828
000270 24 49 43 3c f8 7a f5 3b be 4b c1 3c 14 51 1f 3c
       0.011919294 0.0074914657 0.023595687 0.00972392
000280 de ee f2 3c 40 c8 bb 3a 98 5c 2f bc 48 f9 98 bb
       0.029654916 0.0014326647 -0.010703228 -0.0046683885
000290 28 d6 e4 3b 18 2d 7a bc 34 7d 74 bc 48 6f a1 3c
       0.006983537 -0.01526954 -0.014922429 0.019706383
0002a0 35 ff db bc ae f0 ec 3c be b7 9a 3c 18 3f 35 bc
       -0.02685509 0.028923359 0.018886443 -0.011062406
0002b0 dc 54 97 3c 28 94 e9 3b 1c 77 b5 bc 5a c1 88 bc
       0.018473081 0.0071282573 -0.022151522 -0.01669376
0002c0 f2 34 32 bc 70 b8 3d 3c 2a 6c 98 bc f0 cd c1 bc
       -0.010876881 0.011579618 -0.018606264 -0.023657769
0002d0 0c 98 8b 3c 8e 3f ad 3c 00 85 66 bb 00 af a9 3c
       0.017040275 0.02114847 -0.003517449 0.02071333
0002e0 90 42 af bc c5 66 98 bc 00 40 b3 38 b0 5b 13 3b
       -0.021394044 -0.018603692 8.547306e-05 0.002248507
0002f0 30 8e 9b bb 63 87 a9 bc de 25 cf bc 55 de 11 3d
       -0.0047471747 -0.02069444 -0.025286611 0.035612423
000300 d2 cd 26 bc 82 56 c2 3c 70 2e 45 3b 40 58 6a bc
       -0.010180907 0.02372289 0.0030087493 -0.014303267
000310 60 9a cf 3c e3 9b fb bc 26 06 c8 3c ae ea 91 bc
       0.025342166 -0.030713981 0.024416994 -0.0178121
000320 18 85 73 3c bc 2a 41 bc ea 0e 97 bc 9c f2 70 bc
       0.014863275 -0.011789974 -0.018439729 -0.01470628
000330 56 62 b1 3c dc fd 22 bc cc 08 bf 3c 3c b4 3f bc
       0.021653336 -0.00994822 0.023319624 -0.011700686
000340 60 5e cf 3b d3 2e 82 bc f8 9a 25 bc 8a 35 e9 bc
       0.006328389 -0.015891468 -0.010107748 -0.028467912
000350 f0 39 b6 bb 9c de cb 3c 00 67 02 bd 39 12 0a 3d
       -0.005561106 0.024886422 -0.03183651 0.033708785
000360 c0 0e 5a 3a e0 fb 53 3c ee ee a1 bc f7 42 06 3d
       0.0008318238 0.01293847 -0.01976725 0.032778706
000370 24 2f d8 bb 90 45 91 3c e7 24 88 bc 43 73 95 bc
       -0.0065974165 0.017733365 -0.016619159 -0.018243438
000380 ae 68 b6 3c 80 23 99 bc 8d af 06 3d ee 98 d2 3c
       0.022266712 -0.018693686 0.032882262 0.025707688
000390 62 33 ac 3c bc 5c 2e bc c6 15 fd 3c 1c 30 f3 bb
       0.021020595 -0.010642227 0.030894171 -0.0074215066
0003a0 30 cb 51 bb 4e fb 40 bc 93 5c b2 bc ba 1a f4 3c
       -0.0032011978 -0.011778666 -0.021772658 0.0297979
0003b0 ac aa b1 3c ad b9 04 bd 6e e7 17 bc a8 7b 09 bd
       0.021687828 -0.032403637 -0.009271486 -0.033565193
0003c0 7c f9 6a bc 64 a6 9e bb 8e 10 f9 bc f8 58 13 bc
       -0.014341708 -0.0048416127 -0.030403402 -0.00899338
0003d0 a2 80 f2 3c 7e 12 9c bc d3 50 9e bc a3 57 df bc
       0.029602353 -0.019051787 -0.01932565 -0.027263468
0003e0 28 bf af 3b 90 7e 18 3c 2e 59 fc 3c e2 c2 b2 3c
       0.005363364 0.009307519 0.030804243 0.021821443
0003f0 c5 72 e1 bc 15 7e 9e bc 5c d4 95 bc 90 bf 9d 3c
       -0.027520547 -0.01934723 -0.018289737 0.019256383

fc2.bias f4 [10]
000000 60 34 25 bc e5 cb a4 3d 80 0f b3 bd 79 71 8b bd
       -0.010083288 0.08046702 -0.08743191 -0.068087526
000010 de 39 db bc 60 4b 78 bd 48 88 a3 3c 19 20 ad 3d
       -0.026760992 -0.06061876 0.019962445 0.08453388
000020 08 05 02 bc 61 a8 b4 bd
       -0.00793577 -0.08821178

fc2.weight f4 [10, 128]
000000 ea fd 76 3d e9 65 82 3d 54 28 0b bd 21 35 85 bd
       0.060300745 0.06367094 -0.033974007 -0.06504274
000010 c3 3b 00 bd 70 11 f8 3b 10 37 2f bc c0 19 77 bb
       -0.031306993 0.007570438 -0.01069428 -0.0037704557
000020 e0 b4 c1 3b b6 cc 75 bd a3 fe 85 3d 88 03 34 bc
       0.0059114546 -0.06000968 0.06542709 -0.01098717
000030 10 a5 b9 3c 1e dc 17 3d 19 00 a7 3d e6 b1 32 3d
       0.022661716 0.037075154 0.081543155 0.04362669
000040 98 ee 42 3c 56 a5 5e 3d 7c ed 82 bd af 4d 3d bd
       0.0118977055 0.054356895 -0.06392953 -0.046216663
000050 d1 7c 50 bd 4e 49 aa bd 6a 64 55 3d fc 9f 97 3c
       -0.050900284 -0.08314763 0.052097715 0.018508904
000060 6c a3 ed 3c 5a 81 b3 bd bb a7 28 bd 60 f8 bd 3c
       0.02900859 -0.08764906 -0.041175585 0.023189723
000070 f0 79 0a bd 37 2a 93 3d 37 b1 9f 3d 98 ff 05 bd
       -0.033807695 0.07185786 0.07797473 -0.032714456
000080 7a 86 61 3d ab e8 a1 3d 49 eb 0c bd e0 ef bf 3b
       0.055059887 0.07905706 -0.034404073 0.0058574528
000090 85 01 21 bd 00 c3 a3 ba 74 98 9a bd 28 da 51 bc
       -0.03930809 -0.0012494028 -0.075486094 -0.01280836
0000a0 0b 24 06 bd 0a 5c 3d 3d b4 d7 91 bc 3f 93 ae bd
       -0.032749217 0.046230353 -0.01780305 -0.08524179
0000b0 d8 32 15 3c 40 96 63 3b e9 de 32 bd 7f dc aa bd
       0.00910636 0.0034727007 -0.043669615 -0.083428375
0000c0 f3 e9 af 3d 2a b2 71 3d 2d e6 9f 3d e0 62 65 3c
       0.08589544 0.0590078 0.078075744 0.014000624
0000d0 db 28 8a 3d 1a d2 a4 bd 85 de 3d bd b1 43 85 3d
       0.06746074 -0.08047886 -0.04635479 0.06507052
0000e0 79 f5 a7 bd b0 37 74 3c 30 52 99 3c 82 9d b2 bd
       -0.08201117 0.014905855 0.018715948 -0.087214485
0000f0 a0 69 8f bd 40 6a cc bb e3 65 87 bd 50 6c 41 bd
       -0.07002568 -0.006238252 -0.0661123 -0.047222435
000100 a0 cd a1 3b 32 31 ee bc 82 54 14 3d 30 98 d1 3c
       0.0049378425 -0.029076193 0.036213405 0.025585264
000110 80 bc 99 3c ef 15 ad 3d d7 68 8b 3d 2b 44 a3 3d
       0.018766642 0.08451449 0.06807106 0.079719864
000120 a8 de 68 3c c5 9b 99 bd 2a 00 1e 3d cd e8 b2 bd
       0.014213242 -0.07500414 0.038574375 -0.087358095
000130 46 8c 4e bd 9c e8 b3 bc 4e 60 08 bd a0 3d e8 bb
       -0.050426744 -0.021961503 -0.03329497 -0.0070874244
000140 8a 45 41 3d 28 c9 8b bc cc 73 07 3d 00 6a 65 bc
       0.04718546 -0.017063692 0.033069417 -0.014002323
000150 58 35 b1 bc e0 63 88 bc 78 79 b9 3c 72 5b 28 3d
       -0.021631882 -0.016649187 0.022640929 0.041102834
000160 fa 02 3c 3d f6 7f 7e 3d 4a fe 01 bd 48 e3 76 bd
       0.045901276 0.06213375 -0.03173665 -0.060275346
000170 6c 96 d4 3c 10 5c 0a bd 6a b9 db bc 41 40 0c bd
       0.025950633 -0.033779204 -0.02682181 -0.034240965
000180 76 62 7c 3d 60 a9 ad bb e0 f1 09 bd 28 bc 76 3c
       0.061617337 -0.005299732 -0.033677936 0.015059508
000190 14 3e a3 3c d5 6e 1b bd 89 f5 9a 3d 98 0b 23 3c
       0.019927062 -0.037947495 0.07566363 0.009951495
0001a0 73 14 a5 3d 3f 5b 90 3d ee b7 2e 3d 95 40 95 3d
       0.08060541 0.07048654 0.042655878 0.07287709
0001b0 80 fa 85 bc 6c e2 f1 3c aa 42 8c bd f3 f3 59 bd
       -0.0163548 0.029526912 -0.06848653 -0.053211164
0001c0 c8 14 52 3c b2 b9 90 bd fa 8a 4e 3d ef 88 90 3d
       0.012822337 -0.070666686 0.050425507 0.07057368
0001d0 ec 64 7a bd a4 9a fc 3c 24 77 ee 3c 21 89 8c 3d
       -0.061131403 0.030835457 0.029109545 0.06862093
0001e0 42 dc 42 3d 50 ee a4 bd 10 06 dc bb ac 39 fd bc
       0.047573335 -0.08053267 -0.00671459 -0.03091129
0001f0 ff 3b 83 3d 60 80 d7 3b c8 cb 55 bc a4 23 df 3c
       0.06407928 0.006576583 -0.0130490735 0.027238674
000200 70 70 ce bb de 16 2c 3d f5 a9 a1 3d 9b 58 93 3d
       -0.0063000247 0.042013995 0.07893745 0.071946345
000210 d4 83 93 bd 00 36 d8 bc 6b b4 9e 3d 78 55 b4 3c
       -0.072028786 -0.026392937 0.07749256 0.02201341
000220 ab 09 97 3d 8e a8 69 3d 63 1d a6 3d 1d 52 b3 bd
       0.07374891 0.057045512 0.08111074 -0.08755896
000230 14 ab 1b bd a0 ab 12 bc a4 f8 9e 3c 8c 26 a7 3c
       -0.03800495 -0.008952051 0.01940567 0.020404123
000240 dc cd 97 bc 00 3b d1 bb e2 95 1a 3d fd 7b 8b 3d
       -0.018530779 -0.006385207 0.037740596 0.06810758
000250 76 b7 64 3d 6e 87 70 3d b7 cb 98 bd 38 31 14 3c
       0.055839024 0.058722906 -0.074607305 0.009044938
000260 eb d9 aa 3d 0e 65 3a bd 67 72 0c bd eb f9 4a bd
       0.08342346 -0.04550653 -0.03428879 -0.049554747
000270 78 a4 a5 bd da 49 6e 3d c8 11 3c bc 26 c2 eb bc
       -0.080880105 0.0581759 -0.011478849 -0.0287791
000280 bf dc 07 bd 9c 3f 8c bd da 5c 76 bd 20 09 d8 3b
       -0.033169504 -0.0684807 -0.060147144 0.0065928847
000290 a8 ff cf 3c 08 a0 f4 3c 3d 86 a4 3d fd c1 09 bd
       0.025390461 0.029861465 0.080334164 -0.033632267
0002a0 a0 9c a8 bb 23 a7 ab 3d ac 48 d2 bc 70 19 92 3b
       -0.0051456243 0.08381488 -0.025669418 0.004458599
0002b0 d7 17 ab 3d 52 8c af bd 73 a5 a1 3d 81 95 b2 3d
       0.083541565 -0.08571686 0.07892885 0.08719922
0002c0 5a 58 32 3d 6f 94 91 bd 90 b5 3d bd b2 f3 6a 3d
       0.04354129 -0.071083896 -0.04631573 0.057361312
0002d0 df 58 b1 3d 6c f0 80 bd 9d 5e 99 3d ab 6c b1 3d
       0.08659529 -0.06295857 0.07488749 0.08663305
0002e0 0b 73 90 3d cc d7 b1 3c 70 4b db 3c eb f2 a6 3d
       0.07053193 0.021709345 0.02676937 0.08151802
0002f0 46 0a 3e bd 8c 5a 47 bd 31 e7 b2 3d 2c b6 e3 3c
       -0.046396516 -0.048670337 0.087355025 0.027796827
000300 b6 73 46 3d 80 0a 66 3b 38 3e 6c bc 23 fc a9 3d
       0.048450194 0.0035101473 -0.014419131 0.083000444
000310 ac 6a aa bd ce f2 20 3d 54 5d ad bd 28 4c 0d bd
       -0.08321127 0.039294057 -0.084650666 -0.034496456
000320 78 3b 0c bc 1a 67 38 bd c0 84 5a bc 77 e4 94 3d
       -0.0085591 -0.0450202 -0.013337314 0.07270139
000330 b4 fc f4 3c 1b 45 29 bd 71 07 95 bd 00 c7 b3 ba
       0.029905654 -0.04132567 -0.0727681 -0.0013715923
000340 cc 79 93 bc 70 cb 29 3c 27 07 a2 3d 54 94 9e bc
       -0.018002413 0.010363445 0.079115205 -0.019357838
000350 40 f0 dd bc 02 30 23 3d 08 25 d0 3c 16 40 9f bd
       -0.0270921 0.039840706 0.025408283 -0.07775895
000360 60 ae a3 3c 96 26 b4 bd fd 3f ac 3d 3d 01 87 3d
       0.01998061 -0.08796422 0.08410642 0.06592033
000370 a8 f7 62 3c 5f 16 a8 3d c6 60 93 bd 00 e4 91 bd
       0.013852991 0.08207392 -0.071961924 -0.07123566
000380 9e 38 7d 3d 09 bc 46 bd 2a 07 4e 3d dc 97 92 bc
       0.061821572 -0.048519168 0.0502998 -0.017894678
000390 90 45 65 3c b4 11 ec 3c 3a 01 2a bd 74 9e 89 bc
       0.013993636 0.028817035 -0.041505076 -0.01679919
0003a0 98 df 49 bc aa c6 37 bd 86 33 16 3d 8f 9d 95 bd
       -0.012321375 -0.044867195 0.03667023 -0.073054425
0003b0 48 71 58 bc fd 06 81 3d e6 a8 6d 3d c7 d5 b2 bd
       -0.013210602 0.06300161 0.058022402 -0.08732181
0003c0 5e e5 25 3d 32 59 05 3d 18 06 56 bc 68 74 44 3c
       0.040501945 0.032555766 -0.013062976 0.011990644
0003d0 31 db ae bd 48 c2 26 3c 2b 80 9d bd fb 9e ab bd
       -0.08537901 0.010178156 -0.07690462 -0.083799325
0003e0 bd e5 a4 bd c1 3a 8d 3d 04 b0 e1 3c 18 b8 b3 3c
       -0.080516316 0.06895972 0.027549751 0.021938369
0003f0 47 95 80 3d 5b 60 3f bd 0f 75 8d 3d be ef 5a 3d
       0.062784724 -0.04672275 0.06907093 0.053451292
