test/rnn_tests/model.onnx (onnx, 10594 bytes, 3 tensors)

Func/StatefulPartitionedCall/sequential/lstm/StatefulPartitionedCall/input/_13:0 f4 [16]
000000 00 00 00 00 00 00 00 00 00 00 00 00 00 00 00 00
       0.0 0.0 0.0 0.0
000010 00 00 80 3f 00 00 80 3f 00 00 80 3f 00 00 80 3f
       1.0 1.0 1.0 1.0
000020 00 00 00 00 00 00 00 00 00 00 00 00 00 00 00 00
       0.0 0.0 0.0 0.0
000030 00 00 00 00 00 00 00 00 00 00 00 00 00 00 00 00
       0.0 0.0 0.0 0.0

Func/StatefulPartitionedCall/sequential/lstm/StatefulPartitionedCall/input/_12:0 f4 [4, 16]
000000 50 74 86 bd 3c 4f 67 be 7d cf 81 3e 73 37 f3 be
       -0.065651536 -0.2258882 0.25353613 -0.47503242
000010 d2 eb 8c 3e 9a ab 7d 3e 75 79 cf 3e 1e e0 a3 bd
       0.27523667 0.24772492 0.40522352 -0.08001731
000020 0d 9e 99 3d c4 37 cd 3e ee e7 94 be f1 14 e9 bc
       0.07500849 0.40081608 -0.29083198 -0.028452368
000030 77 19 82 3a 0c 25 01 3e 98 b0 41 3d a6 3d 8e 3e
       0.0009925802 0.12611789 0.047287554 0.2778141
000040 ce fc ed 3b 6b dd ff be d2 cf dd be ea a9 08 be
       0.0072628027 -0.49973616 -0.43322617 -0.13346067
000050 9f a6 b4 3e be 6b 6b be e6 c1 89 be 45 f8 5d be
       0.35283372 -0.22990319 -0.26905745 -0.21676739
000060 07 5b 55 3b 3a a8 d8 bd c2 6d d5 3b ad d5 17 be
       0.0032555477 -0.10578962 0.0065133283 -0.14827605
000070 9b 88 69 be 68 9c 4a 3e ef 3d b1 be 93 1b 7b 3d
       -0.22806017 0.19786227 -0.34617564 0.061305594
000080 73 75 13 bf 22 b9 30 3d 13 19 82 be 00 91 ea bc
       -0.5760109 0.043145306 -0.25409755 -0.028633595
000090 c8 d4 7a 3d da 42 8a bd b6 1c 1b 3e 13 e3 99 be
       0.06123808 -0.06751032 0.15147671 -0.30056056
0000a0 1e 5a 81 3d 38 5d 5d 3d 9e 27 f7 3d d8 b8 81 be
       0.063160166 0.05404398 0.12068103 -0.25336337
0000b0 60 e2 1b be aa da 02 bf 5c bd a7 3e 40 d8 33 bd
       -0.15223074 -0.51114905 0.32761657 -0.043907404
0000c0 34 4f db 3d d0 d4 5c be 1d 1e 7f be c2 17 4d be
       0.10708466 -0.21565557 -0.24913831 -0.20028594
0000d0 71 01 d2 bd a1 d7 90 3e 84 db 6a be 7f a9 32 bd
       -0.10254181 0.28289512 -0.22935301 -0.043618675
0000e0 34 94 0f bb 53 44 98 be 3e 6b 0b 3e ce d6 17 3e
       -0.0021908404 -0.29739627 0.13615128 0.14828035
0000f0 8f 5a de 3e 23 73 b1 bd ab db c8 3e 95 d9 ed 3e
       0.43428466 -0.08664539 0.39230093 0.46455064

Func/StatefulPartitionedCall/sequential/lstm/StatefulPartitionedCall/input/_11:0 f4 [8, 16]
000000 20 2e c5 bd d0 b1 65 3e cc aa c5 3e 68 d1 ca 3e
       -0.09627938 0.22431111 0.3860687 0.3961289
000010 00 70 b2 3c 6c 31 a6 3e c0 52 ff 3e 50 00 db bd
       0.021781921 0.3245958 0.4986782 -0.10693419
000020 30 75 e7 bd 40 79 54 3d dc 98 a0 be e0 18 cf 3e
       -0.113016486 0.051873446 -0.31366622 0.40448666
000030 f8 97 4b 3e f0 85 f9 bd e0 e6 c6 bd 1c 46 d2 3e
       0.1988219 -0.1218375 -0.09712005 0.41069114
000040 48 7f d6 3e 88 c6 34 3e 6c 74 a9 3e 90 a1 d8 3e
       0.41893983 0.17653859 0.33096635 0.42310762
000050 00 04 7c bc 84 2b f3 be 18 cb 27 be 58 9b bc be
       -0.015381813 -0.47494137 -0.16386068 -0.36837268
000060 0c be 8e 3e c8 6b f9 3e 1c 71 8b 3e 50 ec e6 be
       0.2787937 0.48715043 0.27234733 -0.45102167
000070 e8 a2 f2 3e 74 34 ba 3e d4 ba 8f be f0 b0 af be
       0.47389913 0.36368144 -0.28072226 -0.3431468
000080 c0 58 b4 be 18 a9 8e 3e b8 df 31 3e 3c 49 ca be
       -0.3522396 0.27863383 0.17370498 -0.39508998
000090 bc 01 80 be f4 86 c6 3e d4 06 c3 be 30 c9 0e be
       -0.25001323 0.38774836 -0.38091147 -0.13943934
0000a0 f0 ba f1 3d 00 32 0c 3d 00 c9 f6 3b 08 12 84 3e
       0.118032336 0.03422737 0.0075312853 0.25795007
0000b0 ac 0b a9 3e 60 51 e9 3e 38 69 e0 be 68 f9 4d 3e
       0.33016717 0.45569897 -0.43830276 0.20114672
0000c0 ec 07 d8 3e 18 e6 ab 3e 54 92 ff 3e 50 8e 9d 3d
       0.42193544 0.33573985 0.49916327 0.076931596
0000d0 d4 c8 b5 3e 00 7a 84 3d c0 0b 68 be 88 a7 03 3e
       0.35504782 0.06468582 -0.22660732 0.12856877
0000e0 00 25 0f be 20 38 77 3e 00 51 15 3e 60 8e 4b 3e
       -0.13978958 0.24142504 0.1458168 0.1987853
0000f0 a0 b8 7e bd 88 3d 36 be 7c 4e 8d be 68 44 bf 3e
       -0.06218779 -0.1779691 -0.2759894 0.37356877
000100 f8 06 5c be d4 17 bc be f8 22 d8 be f8 45 af be
       -0.21487033 -0.3673693 -0.4221418 -0.3423307
000110 00 fe 2d 3d 74 98 a4 be 50 0d 49 be b4 23 b1 be
       0.04247856 -0.32147563 -0.19633985 -0.34597552
000120 88 9d c2 be 70 d2 c2 be 30 4e a3 3d 38 1f c4 be
       -0.38010812 -0.38051176 0.079738975 -0.38305068
000130 c8 ae f9 3e 50 b9 c8 bd 40 a9 06 be 5c 46 c7 be
       0.4876616 -0.098009706 -0.13150501 -0.38920867
000140 10 97 8f bd 60 55 55 3d a0 9c 55 bd 50 4e 93 3e
       -0.07011235 0.052083373 -0.052151322 0.28770685
000150 38 33 58 be 34 d1 8d be 28 fe 1b 3e e0 77 4f 3d
       -0.21113288 -0.27698672 0.15233672 0.05065143
000160 00 b6 f5 bc 80 c0 d9 3d 48 ae 5d 3e 38 fd 4b 3e
       -0.02999401 0.106324196 0.21648514 0.19920814
000170 bc 06 aa 3e 38 ae b8 3e 30 82 8e bd f0 26 6a be
       0.33208263 0.36070418 -0.06958425 -0.22866416
000180 e0 da f5 3d e0 86 c1 3e 00 50 78 bc f8 e8 4d be
       0.12004638 0.37798214 -0.015155792 -0.20108402
000190 40 c6 f2 3c 9c 57 c7 be d8 d8 87 3e 1c 69 ad be
       0.029635549 -0.38934028 0.26532626 -0.33869255
0001a0 e8 c2 5c 3e 18 d4 42 be e0 1e 05 be a4 32 fe 3e
       0.21558726 -0.1902622 -0.13000059 0.4964801
0001b0 00 38 6a 3a 08 28 35 3e c8 da 12 3e 60 3b 25 3e
       0.0008934736 0.17691052 0.14341271 0.16135931
0001c0 30 41 ba bd 70 00 95 3e e0 a5 8a 3d 60 1a ce 3e
       -0.09094465 0.29101896 0.067699194 0.40254498
0001d0 98 39 aa be 9c d1 be be 98 cb ed 3e c0 e1 9b 3e
       -0.33247066 -0.37269294 0.46444392 0.3044567
0001e0 20 e6 6a bd c0 58 ff 3e f8 c3 39 be 3c b9 f8 3e
       -0.05734837 0.49872398 -0.18141162 0.48578823
0001f0 94 ad b5 be 60 6d 28 be 8c ed 92 3e e0 33 57 3d
       -0.35483992 -0.16447973 0.2869686 0.052539706
