test/rnn_tests/recurrent.onnx (onnx, 3426 bytes, 4 tensors)

bias_hh_l0 f4 [20]
00000000: 2cb3 f8bd 955d 57be 18f4 8ebc 2e7c 97bd
00000010: b8df 323d c0de 3f3e d0b6 2dbd 2a46 1ebe
00000020: 4062 58bc a2b8 8abd 6e29 513e f45b 21be
00000030: 3111 fcbd 3273 b7bd daba 10be 0a21 213e
00000040: 43f7 30be 50b2 cebd 622c cdbd 4724 00be
-0.12143549 -0.21031792 -0.017450377 -0.07396732 0.043670386 0.18737316 -0.04241067 -0.15456453
-0.013207018 -0.06773497 0.2042596 -0.15757734 -0.123079665 -0.08957519 -0.14133778 0.1573526
-0.17281823 -0.10092604 -0.10018231 -0.12513839

bias_ih_l0 f4 [20]
00000000: 1202 32be c801 86bd aec6 05be 7c25 4bbe
00000010: 680a 12be 1cd4 8c3d 3c25 2abe 5812 a43d
00000020: 461d 43be 88b9 253e 849f 42be 6077 c23d
00000030: c28c b7bd 59f0 dcbd b5d5 4fbe 5ad7 60be
00000040: 94da e23d f6a5 2ebe 5095 f53d 100e 8e3d
-0.17383602 -0.065433085 -0.13064072 -0.19838518 -0.14261782 0.06876394 -0.16615766 0.08011311
-0.19054136 0.16184056 -0.19006163 0.09495425 -0.08962394 -0.1078803 -0.20296367 -0.2195715
0.11076847 -0.17055497 0.1199137 0.06936276

weight_hh_l0 f4 [20, 20]
00000000: fe0f 353e 7845 413e 60ed 783d c00f ea3c
00000010: 2427 ea3d a8c3 e3bc 922b 523e 0099 70bb
00000020: c0ff e13c 7094 35bd 4457 403e 14c7 ae3d
00000030: 38e6 60bd e8d0 ad3d fc58 263e 50ce 543d
00000040: c6b3 173e 94bf 18bd 56b1 213e 2a29 393e
00000050: c603 52be faf9 15be 249a 333e f063 bd3d
00000060: 7033 8b3d 5844 00bd 730a f1bd 0c16 113e
00000070: 70aa 763d be25 43be 4e3b 353e 29e4 4dbe
00000080: 840e 223e 42a5 afbd dcff 8d3d 12bb 30be
00000090: 4a0e 3ebe 7029 a43c d4f2 ca3d cd4f 63be
000000a0: 70fb 43bc 5666 643e f87b 6a3d 6e6c 47be
000000b0: 6479 d33d f0b0 603d f019 00be e808 44be
000000c0: 5485 0bbe d497 12be 9abe 323e d0c7 47bc
000000d0: f814 f8bd a830 62bd 3c8a a63d 301c 143e
000000e0: 8083 3a3d 2409 863d 46b3 003e f06a 98bc
000000f0: b4e1 e73d 1488 353e c02f 343d 9b43 d9bd
00000100: 72dd 0bbe 9102 0bbe 40d9 99bb 57eb f9bd
00000110: 2e09 35be dcc2 3dbd e409 03be cf61 56be
00000120: d033 54be 1f37 53be c8b5 283e 5a9c 443e
00000130: 10d8 093e 4029 45bd e8a3 513d 0c74 1e3e
00000140: b014 b23d 524a ecbd 42f5 213e 2c86 2bbe
00000150: 8a26 98bd b987 38be 78d1 fc3d 7e50 0abe
00000160: 5a82 213e 28fa ac3d 12f4 e7bd 68cd 6ebd
00000170: deac 9bbd c0c9 d2bc 8cb5 20bd b005 043d
00000180: 7726 1bbe 7458 f23d 4874 ce3d a47f 543e
00000190: 84c3 363e e0a2 e2bc 00c0 00b7 d024 a6bc
000001a0: 2ee5 123e 10f8 4e3d fe9a 4cbe e0a9 b33d
000001b0: 347c 2ebe 8851 66bd e8b2 ed3d 942d e23d
000001c0: ec59 a3bd 8083 933c bc2f 9dbd 60e4 e5bb
000001d0: a2c9 23be b445 183e 1046 15bd 78e5 ec3d
000001e0: d48c 89bd 849c e43d ac59 17be a2ba 043e
000001f0: ee70 c9bd d025 2a3e e891 c1bd 0cf5 213e
00000200: 7888 fe3d cd25 ddbd 8a8b 003e 9e78 283e
00000210: 5cb2 903d 8252 d4bd 7c03 03be 903f 163d
00000220: 4ed4 c2bd 4b35 64be 4061 81bd 914b edbd
00000230: 38ab 23bd 48ab 3d3e f622 3a3e d4ff c33d
00000240: 8abe 5cbe ce42 2a3e 9a51 483e 1028 f93c
00000250: dc16 4b3e 0082 16bd 2034 fd3c 5073 4cbc
00000260: 826e a3bd dbab 20be bcde b73d b033 13bc
00000270: de83 153e e408 79bd 966d c9bd 74c3 e53d
00000280: 5c20 543e 205a 4cbc c830 3a3e 41dc 25be
00000290: 3a31 5e3e eb66 0fbe 2c58 4ebe 3808 e23d
000002a0: 0073 0dbc ea5c 2f3e dc6c 8f3d 6690 64be
000002b0: deaa 3cbe ce13 2abe 2864 033e c2dc 363e
000002c0: ba59 343e 9332 4cbe 6c73 41bd 9813 753d
000002d0: b696 203e d847 6f3d 7f5c 28be c022 c0bb
000002e0: b4a9 493e e0da f5bb 9235 1b3e 500c 103c
000002f0: 7c14 23bd 34f6 d63d 7cd3 58bd 201e 94bd
00000300: bc59 4d3e 7694 383e 98e0 00bd e09c 7f3d
00000310: a896 18bd 68bc d23d 0cb6 d43d 4def 2cbe
00000320: 1e75 c0bd 327d 39be 1094 693c 4c9c b63d
00000330: 960f 263e 28c4 e3bd f29e 243e e860 cebc
00000340: 6cf6 9cbd 481c f53d 2c18 ae3d 409f 2fbc
00000350: 78ed d53d f4a4 8abd 8833 ea3d 59d1 cbbd
00000360: 15fb 28be 9c42 b3bd b011 183d 946f 17be
00000370: 0c85 8bbd 8c8a d13d 6c77 1d3e dd9b 2abe
00000380: f499 fb3d c069 d43c 9427 58bd 7445 90bd
00000390: c05e 32bd dc5a 43be 309b 573d a1fe 55be
000003a0: d824 d53d 1661 263e 8e63 1b3e 4c24 57be
000003b0: d1d4 01be 930e 60be 2477 fcbd dc80 543e
000003c0: e300 cabd acec a6bd 0e98 313e 543d a1bd
000003d0: 24ad c5bd be6f 2a3e eefc 26be d213 2b3e
000003e0: 7853 273e c6ea 133e ca1e 283e 50a2 533e
000003f0: 3ee9 d1bd d8af e0bc c071 c13b ab89 13be
0.17681882 0.18874156 0.060773253 0.028571963 0.11433247 -0.027803257 0.20524433 -0.003671229
0.027587771 -0.044331014 0.18783289 0.08534065 -0.054907054 0.08487111 0.16244882 0.051954567
0.14814672 -0.03729208 0.15790305 0.18082109 -0.20509252 -0.1464614 0.17539269 0.09247577
0.0679692 -0.031315178 -0.11769571 0.14168566 0.060221136 -0.19057366 0.17698404 -0.20106567
0.1582585 -0.08576442 0.06933567 -0.17258862 -0.18560138 0.02003929 0.09909597 -0.2219841
-0.011961803 0.22304663 0.057247132 -0.19474956 0.10325888 0.05485624 -0.12509894 -0.19144022
-0.1362508 -0.1431573 0.17455521 -0.012193635 -0.121133745 -0.055222183 0.08131835 0.14463878
0.045535564 0.06544712 0.12568387 -0.01860568 0.11322346 0.17727691 0.04399085 -0.10608598
-0.13658693 -0.13575198 -0.0046950877 -0.12203091 -0.17679283 -0.04632841 -0.12796742 -0.20935749
-0.2072289 -0.20626496 0.16475594 0.19200268 0.13461328 -0.048135042 0.051181704 0.15473956
0.08695352 -0.11537613 0.15816215 -0.16750401 -0.07429226 -0.18020524 0.123446405 -0.13507268
0.15772381 0.08446151 -0.113258496 -0.05830136 -0.07601331 -0.025730968 -0.039235637 0.032231987
-0.15151392 0.11833277 0.10080773 0.20751816 0.17848021 -0.027665555 -7.674098e-06 -0.020281225
0.14345238 0.05052954 -0.19981 0.087726355 -0.17039567 -0.056230098 0.11606389 0.110438496
-0.079761356 0.01800704 -0.0767512 -0.00701575 -0.15994886 0.1487034 -0.03644377 0.11567205
-0.06716314 0.111626655 -0.14780301 0.1296182 -0.09835993 0.16615987 -0.094516575 0.15816134
0.12428373 -0.107982256 0.1255323 0.16452262 0.07065269 -0.103672996 -0.12794298 0.03668171
-0.0951315 -0.22285955 -0.06317377 -0.11586679 -0.03995821 0.1852237 0.18177399 0.0957028
-0.2155706 0.16627046 0.19562379 0.030414611 0.19832939 -0.03674507 0.030908644 -0.0124786645
-0.07980062 -0.15690558 0.0897803 -0.008984491 0.14601085 -0.060799494 -0.09835355 0.1121892
0.20715469 -0.012472659 0.18182671 -0.16197301 0.21698466 -0.14004104 -0.20150822 0.11036724
-0.008633375 0.17125288 0.07003185 -0.22320709 -0.18424556 -0.16609117 0.12831175 0.1785765
0.17612353 -0.19941168 -0.047229216 0.05983314 0.15682492 0.058418125 -0.16441534 -0.0058635175
0.19693643 -0.0075028986 0.15157154 0.008791998 -0.039814457 0.10496178 -0.052936062 -0.072323084
0.20053762 0.18025383 -0.03146419 0.062405467 -0.037253052 0.10289842 0.10386285 -0.16888161
-0.09397338 -0.18114164 0.014256492 0.0891653 0.16216883 -0.11121398 0.16076258 -0.025192693
-0.07664189 0.11968285 0.08500704 -0.0107191205 0.10445684 -0.067697436 0.1143561 -0.09952039
-0.1650203 -0.08752939 0.037126243 -0.14788657 -0.06812486 0.10231504 0.15377587 -0.1666102
0.122852236 0.025929332 -0.05277212 -0.07044497 -0.043547392 -0.19077629 0.052638233 -0.20897914
0.10407418 0.16247973 0.15174696 -0.2100994 -0.1267884 -0.2188056 -0.12327412 0.20752281
-0.098634504 -0.0815061 0.1734316 -0.078730255 -0.096521646 0.16644189 -0.16307423 0.1670678
0.16340435 0.14445028 0.16417995 0.20667386 -0.102495655 -0.027427599 0.0059034526 -0.14407985

weight_ih_l0 f4 [20, 10]
00000000: 72cb 83bd 7c63 c73d 2443 0abd 0629 293e
00000010: ab4f dbbd c260 36be f810 a63c 9e1c 53be
00000020: 9028 013e a027 e63d a8a8 313e c67e 54be
00000030: ba98 34be b853 5f3e 3e71 243e ec7e e23d
00000040: 2231 25be a0db 4dbc 785c 1d3d 88d4 163d
00000050: dc6c 54be 8c64 e1bd cc2d 06be ea18 4a3e
00000060: 8b91 0bbe 20ee e03b 1620 8fbd 30d5 dc3c
00000070: 8234 4fbe 5076 c8bc a866 b5bc 9c11 39bd
00000080: c812 9a3d e85d 193e f018 493d 08d5 313d
00000090: a81c 5bbd a834 ad3c fe27 2cbe debd 0a3e
000000a0: e204 3fbe 0090 953b 929a 91bd 84d0 63be
000000b0: e7ac cdbd 384d a43c 6043 363d cf2e 2bbe
000000c0: 2c64 873d ec15 0fbd 60eb ae3c d043 09bc
000000d0: f038 9e3d d659 09be c804 a9bd 4cfc adbd
000000e0: 8eff 273e 542a 193e c819 cdbc 903b d73c
000000f0: a0d1 133c 344f 22be 3c69 05bd 4168 f3bd
00000100: e441 4fbd ea93 a1bd b4bb e13d e756 54be
00000110: aab4 393e 9c8c 053e b00a 153c 251f 5dbe
00000120: 2828 103e 0439 bc3d 38f4 313d fa49 24be
00000130: f42e 66bd b24c 0d3e 2625 07be 61e3 42be
00000140: af62 e6bd 9810 413e b812 f83d 58e6 103d
00000150: d85b 5c3d 50c2 50be 71f1 d0bd c85a 1d3d
00000160: 40bc 0b3e d00c 0ebd fac6 583e aaef 3a3e
00000170: 7ef3 a7bd c0d1 083d 3070 3d3e 0468 cc3d
00000180: 587b 103d e61a 62be 2c65 223e 60fd 203d
00000190: e014 0ebe b646 5bbe 1336 08be 7bae fabd
000001a0: 6273 043e 959a 3fbe d821 34bd 1807 1f3d
000001b0: c2ba 8bbd ac9d 283e 183e e5bd bc79 1ebe
000001c0: 8615 43be d03a bb3d 0c17 913d c009 51bd
000001d0: fed3 033e 7427 93bd dc6d 61be b82b 5b3d
000001e0: 8c50 56be 00ab 63bd 8cd0 49bd ab8f 1dbe
000001f0: ee47 a5bd 4002 24bb 10fa 1a3d b0ad 07be
00000200: cae7 1abe c346 d1bd b0c5 d93d a0ba 13be
00000210: a0bc 28be 086a 533e 58e1 9dbd 4c7b a83d
00000220: 4e05 16be e030 8b3c 5e4c 523e 027c 2bbe
00000230: 4c16 223e 30a4 193e 50cc 01be ec5d c03d
00000240: 5cac b1bd 5ff5 59be 80f9 c6ba 7a20 3fbe
00000250: 9e8a 9ebd 6ee3 073e c0a8 be3d 909e 073d
00000260: 2c02 36be a8ac 903d 0e95 453e 081b 163e
00000270: 4043 72bd e4be bf3d b6a7 8dbd a6ea 483e
00000280: 1895 45be 78fb 8fbd e2b4 183e c08e 393d
00000290: 2afe 503e 3736 0cbe c060 313c 8870 8cbd
000002a0: 0a2f 613e 2a58 5f3e 482a 493e 60a3 543c
000002b0: e419 ff3d 5885 b0bd 36c2 323e a22a 443e
000002c0: c874 16bd 848c 233e a80f c73c 9f19 1bbe
000002d0: 8a23 81bd 769d 393e ecfd 993d 4208 59be
000002e0: b400 4b3e 65eb 30be 922e 4e3e f0d3 46be
000002f0: ec35 9dbd e045 7fbd f829 29be a094 ccbd
00000300: 5460 4b3e 505f 833c 808b c6bd edc4 fbbd
00000310: 606d 17bd 48a9 933d 50a5 763c f4f9 babd
-0.064352885 0.09735772 -0.033755437 0.16519555 -0.10708555 -0.17810348 0.020271763 -0.20616385
0.1261313 0.112380266 0.17349494 -0.20751485 -0.17636386 0.2180928 0.16058823 0.11059365
-0.16132024 -0.01256457 0.038418263 0.03682378 -0.20744652 -0.11005506 -0.13103408 0.19736066
-0.13629739 0.006864324 -0.06988542 0.026957124 -0.20234874 -0.024470478 -0.022143677 -0.04518281
0.075231135 0.14977229 0.049096048 0.043416053 -0.053494126 0.021143273 -0.16812131 0.13548991
-0.18654206 0.0045642853 -0.0710956 -0.22247511 -0.10042744 0.020056352 0.044497848 -0.16717075
0.06610903 -0.034933016 0.02135247 -0.008377984 0.07725704 -0.13413176 -0.08252865 -0.084953874
0.1640608 0.14957553 -0.025036708 0.026273519 0.009022146 -0.15850526 -0.032571062 -0.11885119
-0.050599948 -0.078895405 0.1102213 -0.20736276 0.18135324 0.1304192 0.009096786 -0.21593912
0.14077818 0.09190562 0.043445796 -0.16043845 -0.05619712 0.13798788 -0.13197765 -0.1903205
-0.11249291 0.18853986 0.12112945 0.035375923 0.053798527 -0.20386624 -0.10202301 0.038416654
0.1364603 -0.034680188 0.21169654 0.18255487 -0.08200739 0.03340316 0.18499827 0.09980777
0.03527388 -0.22080573 0.15858907 0.039304137 -0.1387515 -0.21413693 -0.13301878 -0.12240311
0.1293464 -0.18711312 -0.04397759 0.038825125 -0.068227306 0.16466397 -0.11193484 -0.15476125
-0.1905118 0.09142077 0.07084474 -0.05103469 0.12873837 -0.071852595 -0.22014564 0.05350849
-0.20929164 -0.055583 -0.04927115 -0.15386836 -0.0807036 -0.0025025755 0.037836134 -0.1324985
-0.15127483 -0.10218575 0.10633409 -0.1442666 -0.16478205 0.20645916 -0.077089965 0.08226642
-0.14650461 0.016991079 0.20536944 -0.16746524 0.15828818 0.15004039 -0.12675595 0.09392914
-0.08675453 -0.21285008 -0.0015180558 -0.18664733 -0.07741283 0.13270351 0.0930953 0.0331102
-0.17774266 0.070641816 0.19295141 0.14658749 -0.059146166 0.09362581 -0.06916754 0.19620761
-0.19295156 -0.07030386 0.14912751 0.045302153 0.20409456 -0.13692556 0.01082629 -0.06857401
0.219906 0.21810976 0.19645035 0.012978405 0.1245611 -0.08619183 0.17456898 0.19156888
-0.036732465 0.15971571 0.024299458 -0.15146492 -0.06305607 0.18126473 0.07519135 -0.21194556
0.19824487 -0.17277296 0.20134953 -0.19416785 -0.076763004 -0.062322497 -0.16519916 -0.099892855
0.19860965 0.01603666 -0.09694576 -0.1229342 -0.036969543 0.07210022 0.015054062 -0.09129706
