test/rnn_tests/recurrent.onnx (onnx, 3458 bytes, 4 tensors)

rnn.bias_hh_l0 f4 [20]
000000 ea 67 15 be d8 fa 4e bd 60 bb 03 3e b4 9c 6a bd
       -0.14590421 -0.050532192 0.12864447 -0.05727835
000010 70 fb d2 3c 30 8c 18 be aa dc b5 bd 47 50 ee bd
       0.02575466 -0.14897227 -0.08879979 -0.116364054
000020 28 57 4b 3d 78 32 82 bd 64 4f 5f be 20 fb f5 bc
       0.049643666 -0.063572824 -0.21807629 -0.030026972
000030 08 e3 31 3d 70 29 aa bd b0 22 0d 3d be da a9 bd
       0.043429404 -0.08308685 0.03445691 -0.08293675
000040 78 b4 22 3d 04 0a 2f 3e 85 55 27 be 18 84 33 be
       0.03972289 0.17093664 -0.16341217 -0.17530859

rnn.bias_ih_l0 f4 [20]
000000 40 46 b5 3d b4 b2 be bd 10 2a 62 bc f5 e5 18 be
       0.0885129 -0.09311429 -0.013803974 -0.14931472
000010 c2 1a 64 3e 7c 82 9f 3d ce 94 a3 bd 9a 87 48 3e
       0.22275832 0.0778856 -0.079873666 0.19582978
000020 80 6c a0 ba 04 7a 3c be c8 af a9 bd 3a 30 20 be
       -0.0012239367 -0.1840592 -0.08285481 -0.15643397
000030 8e b3 0d be dc d8 20 bd 98 46 56 3d 34 f3 4e 3e
       -0.13838026 -0.039269313 0.052313417 0.20209962
000040 b4 b1 23 3e a2 82 4f 3e 18 e2 63 3e 70 4c 63 3c
       0.15985757 0.20264676 0.22254217 0.013873205

rnn.weight_hh_l0 f4 [20, 20]
000000 1f ae 06 be 32 7f 28 be 9e a9 f3 bd 5c f1 1f bd
       -0.1315236 -0.16454771 -0.11897586 -0.039048538
000010 de f2 91 bd 33 61 06 be d0 48 b0 bc e2 15 1e 3e
       -0.07126401 -0.13123016 -0.021519095 0.15438035
000020 c0 9f 4e 3d b4 e5 ef 3d 74 7c ad 3d c8 05 8c 3c
       0.05044532 0.11713734 0.08471003 0.0170926
000030 98 cb 29 3e f0 e4 a4 bd 18 d9 bf bc 18 29 2e 3d
       0.16581571 -0.08051479 -0.023418948 0.04251966
000040 b0 82 54 be 2a b1 5f 3e b4 89 cc 3d 7b 54 64 be
       -0.20752978 0.21844926 0.09987202 -0.22297852
000050 18 df 5b 3d d8 99 01 3e 70 af 1b 3d a4 8c 42 bd
       0.053679556 0.12656343 0.038009107 -0.047497407
000060 0f 7c 4a be e0 94 f3 3d b0 2d 40 bd 6a 0f af bd
       -0.19773887 0.1189363 -0.04691857 -0.08547862
000070 d2 09 63 3e 67 a3 2c be 3c c2 30 3e e0 9a e7 3c
       0.22171715 -0.16859208 0.17261595 0.028272092
000080 60 53 4d 3d e6 f3 3e 3e 74 9e dd bd 0c 85 03 be
       0.05012834 0.18647727 -0.10821238 -0.12843722
000090 81 a7 56 be da a1 49 3e 00 1c da bd 4c 64 0c be
       -0.20962335 0.19690648 -0.10649872 -0.13710135
0000a0 b0 87 cb 3c b8 d5 2c 3e 90 98 cb 3c d0 d1 00 bd
       0.024844974 0.16878402 0.02485302 -0.031450093
0000b0 b4 e7 1a be 80 eb da 3b dc c7 3e 3e 34 12 f1 bd
       -0.1512745 0.006680906 0.18630928 -0.1177105
0000c0 30 53 d9 3c 83 0c 0f be bc d5 b4 3d 92 9a 8a bd
       0.026528925 -0.13969617 0.08829829 -0.06767763
0000d0 20 4c cd bb 84 78 e1 3d 32 0e 4c 3e 10 b7 e8 3c
       -0.0062651783 0.11009315 0.1992729 0.028407604
0000e0 db 9f 1f be c2 c3 f6 bd 7c e6 79 bd c8 af 62 3d
       -0.15588324 -0.120490566 -0.061010823 0.05534342
0000f0 44 72 e2 3d 40 cc 05 3e b4 e6 61 bd 20 56 15 3d
       0.11056951 0.13066196 -0.055151656 0.03645909
000100 2e 71 d2 bd c0 92 bd 3d cc c9 54 bd a6 9f 37 3e
       -0.102754936 0.09256506 -0.05195026 0.17931995
000110 62 e8 98 bd 54 06 06 3e 22 6f 1b 3e 13 5c f0 bd
       -0.074661985 0.13088351 0.15179113 -0.11736312
000120 80 f6 c6 3c 08 d6 8f bd 6c 0a ef 3d b7 1f e7 bd
       0.024287462 -0.07023245 0.1167191 -0.11285346
000130 8a 57 07 be 89 a4 62 be 9c dd 93 3d 2c 77 a3 bd
       -0.13216987 -0.22133078 0.07220003 -0.079817146
000140 88 e1 91 3d ba 0d 51 3e 96 a6 c7 bd f3 b5 3d be
       0.07123095 0.20415393 -0.097485706 -0.1852644
000150 d0 80 3d be 1a b9 10 3e 94 54 08 be 80 d9 f1 3c
       -0.1850617 0.1413311 -0.13313514 0.029522657
000160 a4 69 5c 3e 82 83 5a 3e 26 fd 46 be 20 79 3a be
       0.21524674 0.21339229 -0.19432506 -0.18210268
000170 01 28 3f be c8 d6 4e be b0 d9 53 3c 9e 29 1b 3e
       -0.18667604 -0.2019912 0.012930319 0.15152594
000180 7b b0 f3 bd 7a 0a 35 be 4c 21 55 be 18 79 18 3e
       -0.11898895 -0.17679778 -0.20813483 0.14889944
000190 44 ee 83 3d ca 96 64 3e 8c 2c 9e bd 66 7f 33 be
       0.0644193 0.22323146 -0.077233404 -0.17529067
0001a0 cc 19 63 bd 90 6a 95 3d 2c e1 af 3d 30 1a 01 bc
       -0.055444524 0.07295716 0.0858787 -0.007879779
0001b0 b8 06 6f 3d 7a 04 05 be 42 42 97 bd 9c ec 36 3e
       0.058356017 -0.12989989 -0.073856845 0.17863697
0001c0 84 c6 01 3e c8 5e 28 be 7a 8d 35 be 80 5d ca 3c
       0.12673384 -0.16442406 -0.1772975 0.024702787
0001d0 40 79 39 bd 76 85 22 3e f2 f2 2a be 7f 3a 0b be
       -0.04528165 0.15871224 -0.16694239 -0.13596533
0001e0 00 9e e0 3a d8 2a 63 be 70 e9 03 bd ba d5 18 3e
       0.0017136931 -0.22184312 -0.032205045 0.1492528
0001f0 6a d9 0d be 70 12 f4 bc 8c 23 22 bd 50 36 47 bd
       -0.13852468 -0.029793948 -0.03958468 -0.04863578
000200 16 d7 59 be 98 c5 17 3d c1 a4 f4 bd 7e 9c 1b 3e
       -0.21273455 0.037053674 -0.11945487 0.15196416
000210 ca c2 36 be 36 a4 4d be 30 9f 99 3c ca 83 22 3e
       -0.17847744 -0.20082173 0.018752664 0.15870586
000220 b8 ac df 3d 90 17 a7 bd 08 ab 6e 3d c8 4b 5d be
       0.10921615 -0.08158791 0.058268577 -0.2161094
000230 ac b9 f2 bd ae fe 20 3e a8 51 1d 3e 32 81 d2 bd
       -0.1185182 0.15722153 0.1536318 -0.10278548
000240 c8 16 39 be b4 83 af bd 20 52 b7 bb 38 56 ff bd
       -0.18075097 -0.08570042 -0.005594507 -0.12467617
000250 2c 32 14 3e 9e 48 5b 3e 75 fb 42 be b6 a2 10 be
       0.14472264 0.2141442 -0.19041236 -0.1412457
000260 d8 ba 03 be c0 2f 78 3d 96 df 4b 3e dc ec b2 bd
       -0.12864244 0.060592413 0.1990951 -0.087365836
000270 80 88 a5 3d dc 86 16 be a0 a9 54 be 34 c3 17 3e
       0.08082676 -0.14699882 -0.20767832 0.14820558
000280 3c 70 83 3d f4 1e af 3d 38 d0 e4 bc 98 51 20 3d
       0.064178914 0.08550826 -0.027931318 0.039140314
000290 8a 15 11 3e 8c 91 3f bd 04 38 9b bd 20 31 7f 3d
       0.14168373 -0.046769664 -0.075790435 0.06230271
0002a0 62 ff 21 be 64 70 53 be 63 03 04 be 5e c5 06 3e
       -0.15820077 -0.20648342 -0.12891917 0.13161227
0002b0 68 81 0f 3d f0 f6 b6 3d 0d 3b fe bd f4 d6 cc 3d
       0.03503552 0.08933818 -0.12413607 0.100019366
0002c0 86 95 0f 3e d8 61 01 3e 7c 03 b4 3d 26 2e 26 3e
       0.14021882 0.1263498 0.08789727 0.16228542
0002d0 48 50 24 3e d4 7d d2 bd cc 8e 72 bd 8a 4f 3a 3e
       0.1604625 -0.10277906 -0.059218213 0.18194404
0002e0 aa 9e 52 3e 08 25 3c be 8e 94 1b be 3c 73 e1 3d
       0.20568338 -0.18373501 -0.15193388 0.11008307
0002f0 d6 d7 cf bd c1 ba 4b be 68 f6 bf 3c 10 c0 c5 3c
       -0.10148589 -0.1989546 0.023432925 0.024139434
000300 28 14 42 3e aa 0d 5e 3e dc 53 4d 3e 4d 00 47 be
       0.18953001 0.216849 0.20051521 -0.19433708
000310 9c 3c 9c 3d cb 34 e9 bd f4 7e 2e 3e d0 2d 4a be
       0.07628748 -0.113870226 0.17040616 -0.19744039
000320 d0 1f 91 bc 84 a8 b6 3d 9e 50 d3 bd 70 94 c4 bc
       -0.017715365 0.089188606 -0.10318111 -0.023996562
000330 a0 f4 ce bd 9a 3a 26 be c0 99 55 bb 37 00 d9 bd
       -0.10105252 -0.16233292 -0.0032592863 -0.10595744
000340 c0 78 87 3c 16 f0 56 3e f8 d3 4a 3e 38 59 04 3d
       0.01653707 0.20990023 0.19807422 0.032311648
000350 f0 eb 0e 3e 70 4b ce 3c 7c 9d 3b bd c4 ec ea bd
       0.1395719 0.025182456 -0.045804486 -0.11470941
000360 b4 ee f6 bd 76 76 f8 bd 06 ac 52 be cc d0 16 3e
       -0.12057248 -0.1213197 -0.20573434 0.14728087
000370 4a dd 94 bd d0 ac e8 3d e0 26 e4 3d 70 30 3c bc
       -0.0726877 0.11361086 0.11140227 -0.011486158
000380 a0 d3 fa bd 2e b5 9a bd 8b d4 2e be 0a c3 64 3e
       -0.122473955 -0.075540885 -0.17073266 0.22340026
000390 98 10 41 3d 3a c3 f7 bd e8 98 45 3d c2 14 ff bd
       0.047134966 -0.120977834 0.048241526 -0.12455131
0003a0 90 e1 2c 3d af d3 3e be 90 ef d4 bd e0 61 53 bc
       0.0422073 -0.18635438 -0.103972554 -0.012901753
0003b0 ab aa e5 bd 0c 76 4f be c5 c7 36 be c2 3b 38 be
       -0.11214193 -0.20259875 -0.17849644 -0.17991546
0003c0 f8 88 bb bd 54 96 37 3e 9c 43 30 3e 90 01 c7 bc
       -0.09156984 0.1792844 0.17213291 -0.024292737
0003d0 e8 2b 22 bd 1c 26 00 be a8 ad 32 bd 38 a1 14 3d
       -0.039592654 -0.12514538 -0.043622643 0.036286563
0003e0 dc 5a 51 3e 38 39 90 bc cc 1f d6 3d c4 bd be 3d
       0.20444816 -0.017605409 0.104552835 0.09313539
0003f0 96 21 1d be a4 32 a9 3d 50 e6 80 bc 34 c3 c0 3d
       -0.15344843 0.08261612 -0.015734822 0.09412232

rnn.weight_ih_l0 f4 [20, 10]
000000 5f 93 d6 bd 18 87 08 3e 58 b6 63 3d 70 28 70 bc
       -0.104773276 0.13332784 0.05559382 -0.014658079
000010 f0 40 57 3d b6 b1 08 3e 40 c6 2d be 47 60 5b be
       0.052552164 0.13349041 -0.16970158 -0.21423446
000020 5a 6c b8 bd 98 42 23 3e 00 af 27 3c 40 18 81 bc
       -0.090050414 0.15943372 0.010234594 -0.015758634
000030 12 f9 03 be 5a 36 53 be f2 68 bf bd 88 00 0b 3e
       -0.12887982 -0.20626202 -0.093461886 0.13574421
000040 68 06 b9 bd 0c 36 96 3d 00 d6 a8 b9 23 91 1a be
       -0.09034425 0.073345274 -0.000322029 -0.15094428
000050 f0 11 1b 3c c0 36 fb 3d 60 cd 3b bc 72 67 3b be
       0.009464726 0.12266302 -0.011462539 -0.1830118
000060 30 fc c0 bd 9c 3c 91 3d a0 f7 bf 3b df 25 18 be
       -0.09423101 0.070916384 0.0058583766 -0.14858197
000070 c2 3a 06 3e 9c 5e 54 be c0 9a b7 3c c0 18 1e 3b
       0.13108352 -0.20739216 0.022412658 0.002412364
000080 68 3d 40 3e 8c 4f 06 bd 90 3f 30 be e8 10 ee 3d
       0.18773425 -0.032790706 -0.17211747 0.11624318
000090 e4 44 93 bd 62 8a 55 3e 5e 59 01 be e6 ff 55 3e
       -0.07190874 0.2085357 -0.12631747 0.20898399
0000a0 04 a1 95 bd 90 22 51 3e 68 25 99 3d a0 13 a2 3d
       -0.07306102 0.20423341 0.07477838 0.079138994
0000b0 18 e2 23 be a0 37 9e bc 00 7a 3d bc ca 7a 44 3e
       -0.16004217 -0.019313633 -0.011564732 0.19187465
0000c0 10 e4 87 3c d0 87 cf 3d 42 b4 14 be c8 62 37 3e
       0.01658824 0.10133326 -0.14521888 0.17908776
0000d0 30 46 aa 3d 8c f5 db 3d c0 51 fb 3b 10 32 78 3d
       0.083141685 0.10740194 0.0076696575 0.06059462
0000e0 68 b2 c0 3c 00 14 0a bc e8 e7 94 3d 00 52 c8 39
       0.02352257 -0.00842762 0.07270795 0.00038208067
0000f0 20 22 23 bc c9 2b 43 be e1 71 20 be 80 ea 3b 3d
       -0.0099568665 -0.19059671 -0.15668441 0.045877934
000100 7f 2d 2b be e0 b3 5d bd 2b a8 ed bd 58 e9 98 bc
       -0.16716574 -0.05412662 -0.11604341 -0.018665954
000110 9c d0 26 3e c4 7b 5a 3e fc 4e 9e bd 80 5c ad 3a
       0.16290516 0.21336275 -0.07729909 0.001322642
000120 12 7a 8e bd 74 db 82 bd 38 38 a1 3d bc a2 54 be
       -0.06956877 -0.063895136 0.07872051 -0.20765203
000130 1c 1f 3a be b8 6b c5 bd 8c 67 f4 3d 58 05 9a 3d
       -0.1817593 -0.09639686 0.119338125 0.075205505
000140 00 77 78 3d 06 67 b7 bd 68 ac 0b 3e ac dd ce 3d
       0.060660362 -0.08955197 0.13639987 0.10100874
000150 30 74 be 3d ac 5e 63 bd 6c c7 8a 3d 70 fa 32 bd
       0.09299505 -0.055510208 0.06776318 -0.043695867
000160 42 24 8d bd ea 03 52 3e aa 6f 4c 3e 40 60 6b bb
       -0.06891681 0.20509306 0.19964471 -0.0035915524
000170 5b 42 38 be b0 5d f2 3c 28 03 02 3d 24 04 20 be
       -0.17994063 0.02958569 0.03174129 -0.1562658
000180 08 f8 d2 bc f0 9c e3 3c fb 0b 26 be a8 df bd 3d
       -0.025753036 0.027784795 -0.16215508 0.09271175
000190 80 03 4f 3d 80 cb 92 3a e0 eb 35 bd 94 9f 07 3e
       0.050540447 0.0011199564 -0.0444144 0.13244468
0001a0 22 7d 39 be 5f 64 cd bd 70 6c af bd 1c 9a 41 3e
       -0.1811414 -0.1002891 -0.08565605 0.18906444
0001b0 16 43 07 be 0a 34 14 3e 00 40 be ba d0 e6 46 3d
       -0.13209185 0.14472976 -0.0014514923 0.048559964
0001c0 58 31 a8 3d a9 08 db bd 44 60 aa 3d 2b ff e1 bd
       0.082125366 -0.10695011 0.083191425 -0.110349976
0001d0 5a 07 5e be e2 78 b3 bd d4 0a a8 bd e7 61 41 be
       -0.21682492 -0.08763291 -0.0820519 -0.18885003
0001e0 ac 4d d3 3d e0 38 9a 3b 08 ae 9d 3d 30 a4 28 3c
       0.10317549 0.004706487 0.076992095 0.010293052
0001f0 a8 ff 7f bd 24 b3 66 bd 6e 44 12 3e 50 e5 11 3e
       -0.062499672 -0.056323186 0.14283916 0.14247632
000200 52 29 da bd f2 d7 5a 3e c0 e3 b2 3d 8e 90 47 3e
       -0.106524125 0.21371439 0.08734846 0.19488737
000210 3c 6e 57 be 57 c8 48 be b7 fe 52 be 73 01 40 be
       -0.21038145 -0.19607674 -0.20604979 -0.18750553
000220 1a 32 0a be f4 48 de 3d 00 c9 58 bc f8 e9 13 be
       -0.13495675 0.108537585 -0.013231516 -0.14444721
000230 06 6c 64 3e c0 ec fa 3d 46 55 1f 3e 58 f6 44 3e
       0.22306833 0.12252188 0.15559873 0.19234598
000240 cf 25 f0 bd a8 d5 0d 3e b6 15 61 3e 90 9a ac 3c
       -0.117259614 0.13851035 0.21980938 0.021069795
000250 80 6a c6 3a 08 9b 27 3e 74 89 5e bd 80 3e d5 bb
       0.0015137941 0.16367733 -0.054330304 -0.0065076947
000260 4f fc eb bd f4 4a 89 3d 70 70 50 3d ee cc 3a 3e
       -0.115227334 0.06703749 0.05088848 0.18242237
000270 2e 6e 22 3e 70 88 4b 3d d4 32 1f bd 2c 76 12 3e
       0.15862343 0.049690664 -0.038866833 0.14302891
000280 58 20 3b 3d 45 ad 5f be a8 a6 a9 bd 86 85 0a 3e
       0.045685142 -0.21843441 -0.0828374 0.13527498
000290 f0 18 18 bd 30 6b 20 bc c0 26 55 bb 08 27 27 3d
       -0.037133157 -0.0097911805 -0.0032524318 0.040808707
0002a0 f0 e0 e3 3d 60 36 a1 bc 0c 47 53 bd 94 1d 1b 3e
       0.11126888 -0.019679248 -0.051581427 0.15148002
0002b0 be ca 3c 3e 4c 7e 90 bd f0 14 86 3c e8 8d 72 3d
       0.18436715 -0.07055339 0.016367406 0.059217364
0002c0 52 f4 19 3e a0 3b b7 3d b0 04 bc bd b0 69 76 bd
       0.15034607 0.089469194 -0.091805816 -0.060159385
0002d0 b0 e3 38 3d 2c 31 30 3e a4 d4 36 be 50 01 8c 3c
       0.045139015 0.17206258 -0.17854553 0.01709047
0002e0 18 c1 ba 3c c6 79 3c 3e 64 cd c0 3d 16 3b 4f 3e
       0.022797152 0.18405828 0.09414175 0.20237383
0002f0 d5 8a 4e be 9f 89 61 be f8 16 a9 3c 28 8f 3b be
       -0.20170148 -0.22025155 0.020640835 -0.18316329
000300 28 3d 61 be 4e 85 5a be e2 b3 55 3e f3 7a 56 be
       -0.21995986 -0.21339914 0.20869401 -0.20945339
000310 de 2e 40 be 7a 1a 41 3e 4c 3c 9c bd b1 70 d2 bd
       -0.18767878 0.18857756 -0.07628688 -0.102754004
