src/recurrent.onnx (onnx, 3458 bytes, 4 tensors)

rnn.bias_hh_l0 f4 [20]
0	0xbe09caf8	-0.13456333
1	0xbd1c0cec	-0.03809826
2	0x3d2c8020	0.042114377
3	0x3d2e9d08	0.042630225
4	0x3bc000a0	0.0058594495
5	0xbdb6bfde	-0.089233145
6	0xbe2e1436	-0.16999897
7	0x3ae89c80	0.0017746836
8	0xbe2afd71	-0.16698243
9	0xbe2b1d84	-0.16710478
10	0x3dc85b50	0.097830415
11	0xbe158646	-0.14602003
12	0x3e11b3bc	0.1422872
13	0xbe3c3486	-0.18379411
14	0xbe079e8e	-0.13244078
15	0xbce8f868	-0.028438762
16	0x3db1af78	0.08676046
17	0x3e520cc2	0.20512679
18	0xbe0cd4f6	-0.13753113
19	0xbe2ff590	-0.17183518

rnn.bias_ih_l0 f4 [20]
0	0x3e296eda	0.16546193
1	0xbe1ad475	-0.15120108
2	0x3e6053b6	0.21906933
3	0xbe1a165b	-0.1504759
4	0xbe34eabf	-0.17667674
5	0xbe45da3e	-0.19321534
6	0xbd7fb598	-0.06242904
7	0xbc848b00	-0.016179562
8	0x3db64524	0.08899906
9	0xbdb8b402	-0.09018709
10	0x3e3c9fb2	0.18420294
11	0xbd8596de	-0.06522916
12	0xbe11c851	-0.14236571
13	0x3d4074d0	0.0469864
14	0x3de1beb0	0.11022699
15	0xbdc382c2	-0.095464244
16	0xbd5d2860	-0.053993583
17	0xbe582e45	-0.211114
18	0xbe1bd6f2	-0.15218714
19	0x3d839c10	0.06426251

rnn.weight_hh_l0 f4 [20, 20]
0	0x3d43c3d8	0.047794193
1	0xbe08fb87	-0.133772
2	0xbe2dc89e	-0.1697106
3	0xbe52d0c6	-0.20587453
4	0x3dd04b80	0.101706505
5	0x3b9efa40	0.0048516095
6	0x3db2e884	0.08735755
7	0xbe35bfcd	-0.17748947
8	0xbd37c7c4	-0.044868246
9	0x3d513440	0.05107522
10	0x3ce89a00	0.028393745
11	0x3bc15ac0	0.005900711
12	0xbdd54b69	-0.10414774
13	0x39fa0200	0.00047685206
14	0xbd8b8bb0	-0.06813753
15	0x3cd11e38	0.025527105
16	0x3df479b4	0.119372755
17	0x3d086b50	0.033305466
18	0x3e54c3ba	0.20777789
19	0x3e2cf888	0.16891682
20	0x3dad7578	0.08469671
21	0x3e22b24a	0.15888324
22	0xbe037665	-0.12838133
23	0xbd3ceb04	-0.046122566
24	0xbdc4e26c	-0.09613499
25	0x3e4abac0	0.19797802
26	0x3e1cb660	0.15303946
27	0x3e036776	0.12832436
28	0x3db864e8	0.09003621
29	0xbdb4d9bc	-0.08830592
30	0x3dea3ac0	0.11436987
31	0x3de5c0ac	0.1121839
32	0xbbe3bfa0	-0.0069503337
33	0xbe11d6f1	-0.1424215
34	0x3dffdc3c	0.12493178
35	0xbe63bcde	-0.22240016
36	0xbdeb833d	-0.11499641
37	0xbe40cdfc	-0.18828577
38	0xbe1aa198	-0.15100706
39	0xbe59f9aa	-0.21286646
40	0x3d9fa67c	0.07795426
41	0x3dd97720	0.106184244
42	0xbd2bb32c	-0.04191892
43	0x3d9dbea4	0.077023774
44	0xbd917fb2	-0.07104434
45	0x3df8f0e0	0.12155318
46	0x3e3f57c0	0.18685818
47	0x3e2c0d1a	0.16801873
48	0xbdf791e5	-0.12088374
49	0xbcf5db10	-0.030011684
50	0x3d4a24f8	0.049351662
51	0xbdd0f6a1	-0.10203291
52	0x3e63f33a	0.22260752
53	0xbe609278	-0.21930873
54	0x3e556026	0.20837459
55	0xbcff7ae8	-0.031186536
56	0xbdf960ee	-0.12176691
57	0x3e3698d8	0.17831743
58	0xbdcc4887	-0.09974771
59	0xbd80503a	-0.06265302
60	0xbe1eb0b4	-0.15497094
61	0x3e322564	0.17397076
62	0x3e2f349a	0.1710991
63	0xbd9c00e2	-0.07617356
64	0xbc969308	-0.018380657
65	0x3dd211fc	0.102573365
66	0x3cb06de0	0.021536767
67	0x3dcfdc24	0.1014941
68	0xbd63d7b0	-0.055625618
69	0x3e616604	0.22011572
70	0xbdbbd460	-0.09171367
71	0x3dcd7190	0.10031426
72	0x3c8a6120	0.016892016
73	0x3c3598c0	0.011083782
74	0xbdbd066a	-0.09229739
75	0xbdcf1ef1	-0.101133235
76	0xbe08ea2c	-0.1337058
77	0x3e5e7042	0.2172251
78	0xbe21504c	-0.15753287
79	0xbdd780b0	-0.10522592
80	0xbe1de6e9	-0.15420116
81	0x3e4f5012	0.20245388
82	0x3e56faa6	0.20994052
83	0xbdeef310	-0.11667454
84	0x3d36bea0	0.044615388
85	0xbde76f83	-0.11300566
86	0x3de34064	0.11096266
87	0xbdec799d	-0.115466334
88	0x3decca5c	0.115620345
89	0x3e2f477a	0.1711711
90	0xbdbb512a	-0.0914634
91	0x3cc910e0	0.02454418
92	0x3caa0be0	0.020757616
93	0x3e274ef2	0.16338709
94	0x3d166d18	0.036725134
95	0x3c58b4f0	0.013226733
96	0xbdcd9ae7	-0.10039311
97	0x3d77f580	0.06053686
98	0xbe1059e0	-0.14096785
99	0xbdc5969c	-0.09647867
100	0xbe41fe96	-0.18944773
101	0x3c960498	0.018312737
102	0x3e61453e	0.2199907
103	0x3cf2a4f0	0.029619664
104	0x3e3724f0	0.17885184
105	0xbd201188	-0.03907922
106	0xbd7cc7a4	-0.06171383
107	0x3c5f77b0	0.013639376
108	0x3e54380a	0.20724502
109	0x3e48988a	0.19589439
110	0x3cf0bc30	0.02938661
111	0xbe25cbc9	-0.16191019
112	0xbe6153cc	-0.22004622
113	0x3c708020	0.014678985
114	0x3ddca538	0.107737005
115	0x3c49da70	0.012320146
116	0x3dc78270	0.09741676
117	0x3d9a38b8	0.075303495
118	0xbe05bd7a	-0.13060561
119	0x3e4aa618	0.19789922
120	0x3dc27984	0.094958335
121	0xbdd660a4	-0.104676515
122	0x3e05d97c	0.13071245
123	0xbe441383	-0.19148068
124	0x3e3a374e	0.1818516
125	0x3cc19d90	0.023634702
126	0xbe5ef797	-0.21774136
127	0x3d643018	0.05570993
128	0xbe476959	-0.1947378
129	0xbdb6ae3e	-0.08919953
130	0x3e36341a	0.17793313
131	0xbd8721a2	-0.06598212
132	0xbe45ab98	-0.19303739
133	0x3deeb77c	0.116560906
134	0x3dfa17e4	0.12211588
135	0x3e0238ea	0.12717023
136	0xbe3eb9fe	-0.18625638
137	0xbcae4110	-0.021271259
138	0x3e13b39a	0.14423981
139	0x3ca29f80	0.019851446
140	0x3e3e9f76	0.18615517
141	0xbdfd3828	-0.123642266
142	0x3da550b4	0.080720335
143	0x3e14a3a2	0.14515546
144	0xbe04e8b6	-0.12979397
145	0xbc29def0	-0.010368094
146	0xbd427850	-0.04747802
147	0xbdd6cc93	-0.10488238
148	0x3d96cf10	0.07363713
149	0xbe64bf6b	-0.22338645
150	0xbbcd1200	-0.0062582493
151	0x3e0fbb64	0.14036328
152	0xbded5547	-0.11588531
153	0x3de46f44	0.11154035
154	0x3e4f7f3a	0.20263377
155	0x3e376a9e	0.17911765
156	0x3c32a550	0.010903671
157	0x3dba7ec4	0.0910621
158	0xbe47494c	-0.19461554
159	0x3cd10710	0.025516063
160	0x3dff2fc8	0.124602854
161	0xbe35b3d5	-0.17744382
162	0xbdb70454	-0.089363724
163	0x3e112d1c	0.14177364
164	0xbe5e106e	-0.21685955
165	0x3d1faeb8	0.038984984
166	0xbd794d58	-0.060864776
167	0x3d56a8f0	0.052407205
168	0x3e449068	0.19195712
169	0xbdfe650f	-0.12421619
170	0xbc6d96f0	-0.014501318
171	0xbe0e2c4e	-0.13884088
172	0x3dd79690	0.105267644
173	0x3e0c1392	0.1367934
174	0xbce40260	-0.027833164
175	0x3e3e2d84	0.1857205
176	0xbbf88ee0	-0.0075853914
177	0x3e5559e6	0.20835075
178	0x3e3aec64	0.18254238
179	0xbd5ff6a8	-0.05467859
180	0x3c2851f0	0.010273442
181	0x3b6ac580	0.0035823286
182	0xbd11d660	-0.035604835
183	0xbe16ff77	-0.1474589
184	0xbdf5434f	-0.11975729
185	0xbdd21735	-0.10258333
186	0x3e142c5e	0.1447005
187	0xbe1371ae	-0.14398834
188	0xbdda7c75	-0.106682695
189	0x3e0472fc	0.12934488
190	0x3d931880	0.071824074
191	0xbe4adbe7	-0.19810449
192	0x3c3c6770	0.011499271
193	0x3c9b7c98	0.01898031
194	0x3da07b10	0.07835972
195	0x3baed280	0.005335152
196	0x3e38a6cc	0.18032378
197	0xbd5309d0	-0.05152303
198	0xbc7d9b50	-0.015478924
199	0xbe2d5f94	-0.16930991
200	0x3d9b10c4	0.07571557
201	0x3d4b40e8	0.049622446
202	0xbc363630	-0.011121318
203	0xbe4fcd20	-0.20293093
204	0xbe5576f7	-0.20846163
205	0xbdbd97d6	-0.09257476
206	0x3e2e8f1e	0.17046782
207	0x3cd84520	0.026400149
208	0xbd14e0e8	-0.0363473
209	0x3e4729b4	0.19449502
210	0x3d83ce20	0.064357996
211	0x3e502f52	0.20330551
212	0xbe4be17f	-0.19910239
213	0xbd5dc63c	-0.05414413
214	0xbe1fffa6	-0.15624866
215	0x3e0afca6	0.1357294
216	0x3cc3e410	0.02391246
217	0xbe0dc146	-0.13843259
218	0xbe0bd0e0	-0.13653898
219	0xbd5823d0	-0.05276853
220	0x3e4cb6f4	0.19991666
221	0xbcac3660	-0.021022022
222	0xbdcacf3c	-0.09902808
223	0x3d4dd0a0	0.05024779
224	0x3dec7c94	0.11547199
225	0xbe53edef	-0.20696233
226	0xbe3bdacb	-0.18345182
227	0x3dbae3f0	0.09125507
228	0xbe5eb3d3	-0.21748285
229	0x3e067e5e	0.13134143
230	0x3e28ba84	0.164774
231	0xbe368245	-0.17823131
232	0xbe63300b	-0.22186296
233	0xbe132854	-0.14370853
234	0xbda201d2	-0.079105034
235	0xbc9b63f0	-0.018968552
236	0xbddca6ef	-0.107740276
237	0xbe3476d0	-0.17623448
238	0x3cad4e28	0.021155432
239	0xbe6179b6	-0.22019085
240	0x3e607ec2	0.21923354
241	0xbd4808c0	-0.04883647
242	0x3ad4f400	0.0016247034
243	0xbdc28edc	-0.094999045
244	0xbdc6447a	-0.096810296
245	0x3e3f0dc4	0.18657595
246	0xbe582362	-0.21107247
247	0xbe12cee6	-0.14336738
248	0xbcc64118	-0.024200961
249	0x3e36e7aa	0.1786181
250	0x3d8eb4cc	0.06968078
251	0xbcc23740	-0.023707986
252	0xbe5b455f	-0.21413182
253	0x3e392222	0.18079427
254	0x3db1fd10	0.08690846
255	0xbe61e798	-0.22061002

rnn.weight_ih_l0 f4 [20, 10]
0	0xbe45ebb1	-0.1932819
1	0xbd78e610	-0.06076628
2	0xbdd523a3	-0.10407188
3	0x3e28cccc	0.16484374
4	0x3e589f44	0.21154505
5	0x3e18535e	0.14875552
6	0x3dd26434	0.102730185
7	0x3d84dc78	0.064873636
8	0x3e3640be	0.17798135
9	0xbe13f4e0	-0.14448881
10	0xbd03cf20	-0.03217995
11	0x3dc615e8	0.09672147
12	0x3de765e4	0.11298731
13	0x3e298b12	0.16556957
14	0x3e3444b4	0.17604333
15	0x3d5ce300	0.05392742
16	0x3d863240	0.06552553
17	0x3e1135be	0.14180657
18	0x3e098290	0.13428712
19	0xbdb5150e	-0.088419065
20	0x3d0f34d0	0.034962475
21	0xbc8264e8	-0.015917256
22	0xbd593268	-0.053026587
23	0xbe643d17	-0.22288929
24	0xbe450b0b	-0.19242494
25	0x3d392e28	0.045210034
26	0x3e31854c	0.17336005
27	0x3e0ddc0e	0.13853475
28	0xbc59bc40	-0.013289511
29	0xbde4f62d	-0.11179767
30	0x3d351d38	0.04421732
31	0x3e166f26	0.14690837
32	0x3e4e3842	0.20138648
33	0xbdc0f4f0	-0.09421718
34	0x3def22fc	0.116765946
35	0xbe5d7e87	-0.21630298
36	0xbe45ebf7	-0.19328295
37	0x3e05416a	0.13013235
38	0x3d9c48dc	0.07631084
39	0xbdb7d56c	-0.08976254
40	0xbd3c0560	-0.045903563
41	0xbddcedd5	-0.1078755
42	0x3e5781c4	0.21045595
43	0xbdb8d3de	-0.090247855
44	0xbd4b2270	-0.04959339
45	0xbe604bab	-0.21903865
46	0x3ddd52c0	0.10806799
47	0x3d2d5790	0.042319834
48	0xbe61ebbd	-0.22062583
49	0x3d59e010	0.0531922
50	0x3d9892b8	0.074498594
51	0x3e028272	0.12745073
52	0xbe2702fa	-0.16309729
53	0xbded7a8d	-0.1159564
54	0xbe465344	-0.19367701
55	0x3dfbae08	0.12289053
56	0xbd21bbc8	-0.039485723
57	0xbd3cee20	-0.04612553
58	0xbcbb0b90	-0.022832662
59	0xbe5c242a	-0.2149817
60	0x3dfbd618	0.122966945
61	0xbe39ffd8	-0.18164003
62	0x3d5c0ca8	0.053723007
63	0xbcca4c68	-0.024694636
64	0xbd95e78a	-0.07319553
65	0xbe15f2cf	-0.14643405
66	0x3e0ae656	0.13564429
67	0x3c7ae440	0.015313208
68	0xbe48fefc	-0.19628519
69	0x3e34240a	0.17591873
70	0xbe10a01c	-0.14123577
71	0x3e312bb2	0.17301825
72	0xbddd3982	-0.10801984
73	0xbd632ebc	-0.05546449
74	0x3d898750	0.06715262
75	0xbd76078c	-0.06006579
76	0xbb70eac0	-0.0036761016
77	0xbdd86d35	-0.105677046
78	0x3dd99504	0.106241256
79	0xbdda7abd	-0.10667942
80	0xbe305f5b	-0.17223875
81	0xbd911c9c	-0.07085535
82	0x3e5d9f82	0.21642879
83	0xbe5c6726	-0.21523723
84	0xbd4a1bd8	-0.04934296
85	0x3df3dad4	0.119069725
86	0xbdafe104	-0.0858784
87	0x3d666780	0.05625105
88	0x3dfb2474	0.12262812
89	0x3da90ee8	0.08254796
90	0xbdff9f82	-0.124815956
91	0xbe3c5e12	-0.1839526
92	0x3e1676e4	0.1469379
93	0x3d23b388	0.039966136
94	0x3d0d6390	0.03451878
95	0x3e36e436	0.17860493
96	0xbc82d3e0	-0.01597017
97	0x3da3e1b0	0.08002031
98	0x3ddee23c	0.108829945
99	0xbe06f18e	-0.13178083
100	0x3e2e05be	0.16994378
101	0xbe56dd78	-0.20982921
102	0x3de4b5d4	0.111674935
103	0x3e261942	0.16220573
104	0xbd8e7896	-0.06956594
105	0x3dac5474	0.08414546
106	0x3e03d1dc	0.12873024
107	0x3e4711fa	0.19440451
108	0xbe19934f	-0.149976
109	0x3e335d84	0.17516142
110	0x3d20f000	0.03929138
111	0x3dfafa60	0.122547865
112	0xbd82bf30	-0.06384122
113	0x3de247c0	0.110488415
114	0x3e1c6056	0.15271124
115	0x3e12a94e	0.14322397
116	0xbe21dcac	-0.15806836
117	0x3e5814da	0.21101704
118	0x3e12c3e0	0.14332533
119	0x3e06b6b8	0.13155639
120	0xbe396467	-0.18104707
121	0xbcdfa648	-0.027300969
122	0x3e057ad0	0.1303513
123	0xbd44463c	-0.047918543
124	0x3e4aec76	0.19816765
125	0xbe2f3992	-0.17111805
126	0x3daa4744	0.08314374
127	0x3dfa6224	0.1222575
128	0x3e42243a	0.18959132
129	0xbe067060	-0.13128805
130	0x3e24e594	0.16103202
131	0xbddfdcad	-0.109307624
132	0x3cc79220	0.02436167
133	0xbd2a8478	-0.04163024
134	0xbe2a0e4d	-0.16607018
135	0x3e20fa0c	0.15720385
136	0x3d802c08	0.06258398
137	0xbbb33f80	-0.0054702163
138	0x3c2b0080	0.010437131
139	0xbd3515f8	-0.044210404
140	0x3e3e7518	0.18599355
141	0x3e51a884	0.2047444
142	0x3d2c4e88	0.04206708
143	0x3cf2f7a0	0.029659092
144	0xbd928e46	-0.07156043
145	0x3df8c004	0.12145999
146	0x3e51e808	0.20498669
147	0x3db217b0	0.08695924
148	0x3df169b0	0.117877364
149	0xbe3cecb6	-0.18449673
150	0xbdf31ee9	-0.1187113
151	0xbd1322a0	-0.035921693
152	0x3e2a8d50	0.16655469
153	0xbe3e7d2a	-0.18602434
154	0xbc5d2bd0	-0.013499215
155	0x3e0233dc	0.12715095
156	0xbd96acea	-0.073571995
157	0xbd9d1414	-0.07669845
158	0xbddb5ebc	-0.107114285
159	0xbbdb0400	-0.0066838264
160	0xbe017fbc	-0.12646383
161	0x3e06a48e	0.1314871
162	0x3db9f194	0.090792805
163	0x3e54664a	0.20742145
164	0x3dcefb70	0.10106552
165	0xbe4575d8	-0.19283235
166	0x3daedce4	0.08538225
167	0xbd940a92	-0.072285786
168	0x3d584c98	0.05280742
169	0xbe1519c7	-0.14560615
170	0xbe12987b	-0.14315979
171	0x3e245a28	0.16050017
172	0x3da1cd7c	0.07900521
173	0x3e08d356	0.13361868
174	0xbd17a224	-0.037019864
175	0x3def5740	0.116865635
176	0x3e1afaec	0.15134782
177	0xbdb6355e	-0.08896898
178	0xbd99c5f2	-0.07508458
179	0xbe5db01a	-0.21649209
180	0x3e5dc0aa	0.21655527
181	0x3e49f81e	0.19723555
182	0xbe5b41fb	-0.21411888
183	0x3dc1d45c	0.094643325
184	0x3d8c1264	0.06839445
185	0x3e46548c	0.1936819
186	0x3e0cd542	0.13753226
187	0x3e0a73f0	0.13520789
188	0x3e30d48e	0.17268583
189	0xbe426ca6	-0.18986759
190	0x3e37ea78	0.17960536
191	0x3d4d97b8	0.05019352
192	0x3de5ebb8	0.112266004
193	0xbde7b25c	-0.11313316
194	0x3dba1e80	0.09087849
195	0x3d823588	0.063578665
196	0xbe258349	-0.16163363
197	0x3d59fb30	0.053218067
198	0x3bfd91c0	0.007738322
199	0x3e4fcb90	0.20292497
